bootstrapping_connect_four_heuristic.pth (torch, 58396 bytes, 7 tensors)

fc1.weight f4 [128, 25]
-0.18238388 -0.019636994 -0.07156208 0.1650118 -0.20398647 -0.0013131285 -0.063662276 0.21681039
-0.13142885 -0.056903664 0.11749454 -0.03250934 -0.057410374 -0.037165634 -0.036133774 0.008788116
0.08383457 0.12587537 0.06106712 0.020640185 -0.1274659 -0.026859375 -0.0947707 0.03801995
-0.039923362 -0.09196664 0.012029337 0.22254589 -0.1307072 0.19108245 -0.102472134 -0.110952154
-0.18767062 -0.109751366 -0.11207052 -0.14273612 0.21171877 -0.058080032 0.07953977 -0.12575361
0.063191645 0.045316137 -0.001450737 0.08119121 0.107168145 0.08330491 0.20981269 0.14643143
0.06247003 -0.23421554 0.10117243 -0.088900685 0.17321326 -0.02393058 -0.040664483 -0.052861456
-0.17126976 -0.06856386 -0.16206819 -0.17190865 -0.08500228 0.08584195 0.024011498 0.24308364
0.09637964 -0.17917882 -0.12256274 0.11476963 -0.066799395 0.051620167 0.046209343 -0.15057328
0.07926147 -0.07793739 -0.22376189 0.18617846 0.025702681 -0.17091173 -0.083496325 0.07225294
0.13458619 0.097618446 0.12208672 0.13225454 -0.13088688 -0.13961634 -0.13243532 0.12165593
-0.075897604 -0.01694136 0.123867266 0.11613455 -0.09734582 0.12731099 0.06402276 0.09980787
-0.09735574 -0.1938648 0.097564094 -0.15447856 -0.120552175 -0.16419874 -0.1387787 -0.115785
-0.12175311 -0.06865812 -0.11000295 -0.22014181 -0.19582283 -0.032631587 0.1310095 0.118645094
-0.20614643 0.045582145 0.2169992 0.14130324 0.05992219 -0.1116696 0.07724127 0.15112253
0.010544264 -0.058265723 -0.16889985 0.18516995 -0.08818594 0.0448982 0.16027327 -0.08554014
0.16700998 -0.05450977 0.01861379 -0.17153044 -0.10255547 -0.112122186 -0.22623818 -0.10719895
0.14698313 0.1230578 -0.021032326 -0.009800352 0.13259375 -0.019806858 -0.24006242 -0.18104164
-0.072761305 0.084510654 0.165607 -0.08408593 0.05059444 -0.17185524 0.2117508 0.15627763
-0.040581696 -0.08085454 -0.10650384 0.14295451 -0.08012853 -0.0055230614 -0.09175089 0.17368816
0.17774163 -0.0831238 -0.17242736 -0.19760393 0.091204844 -0.1927181 -0.034677483 0.11347183
0.16331345 -0.03612239 -0.082231395 -0.15765797 0.092421725 -0.12729257 0.14014532 0.17525199
-0.14234146 0.02363123 0.03912471 0.20957996 -0.11331548 -0.1313322 -0.124359086 -0.15222356
-0.07993258 0.06991072 0.23269095 -0.15329623 0.008411852 0.14578652 -0.14797191 -0.027056037
0.116372 -0.15314373 0.044897784 0.15337972 0.13263677 -0.0094561 -0.1607318 -0.04845462
-0.19967684 -0.0029790655 0.12661701 -0.21863978 -0.008580368 0.10659754 -0.19265127 0.0064677284
-0.08729829 0.095636986 -0.16020495 -0.10153269 0.0005521547 0.122376524 0.12555304 -0.20974952
-0.17189899 0.19318786 -0.15155396 0.011372136 0.1176217 0.07938161 -0.22415072 0.05843555
-0.114270285 0.12852296 -0.14839648 0.076434635 -0.08538155 0.027773418 0.07482731 -0.24090482
-0.18860868 -0.10357954 0.08074317 -0.019272402 0.09573715 -0.050927147 -0.20264971 -0.08296786
-0.0639741 0.17192118 0.10574487 0.10414424 0.012274196 0.17840087 0.12780096 -0.0065221083
-0.021882722 -0.012328869 0.0067790383 -0.03856986 0.041397586 -0.00531345 0.16445702 -0.12382024
00000000: d7c2 3abe c3dd a0bc 248f 92bd daf8 283e
00000010: d4e1 50be 481d acba 5e61 82bd 8b03 5e3e
00000020: 4995 06be d113 69bd faa0 f03d 8428 05bd
00000030: 2427 6bbd fe3a 18bd 0201 14bd 08fc 0f3c
00000040: 76b1 ab3d 79e5 003e 8421 7a3d 9b15 a93c
00000050: 6c86 02be 3108 dcbc 2417 c2bd cfba 1b3d
00000060: ae86 23bd 0159 bcbd b216 453c 12e3 633e
00000070: 1cd8 05be 1eab 433e e9dc d1bd e23a e3bd
00000080: ba2c 40be 53c5 e0bd 3b85 e5bd 6b29 12be
00000090: cecc 583e 54e5 6dbd bfe5 a23d 8ec5 00be
000000a0: 9f6a 813d 6a9d 393d a826 beba 9447 a63d
000000b0: f97a db3d c49b aa3d 23d9 563e 1ff2 153e
000000c0: 93e0 7f3d 33d6 6fbe 7e33 cf3d 9011 b6bd
000000d0: d15e 313e 100a c4bc cd8f 26bd 4185 58bd
000000e0: 5761 2fbe 366b 8cbd 34f5 25be d208 30be
000000f0: ad15 aebd e7cd af3d c3b3 c43c ebea 783e
00000100: b062 c53d a77a 37be 2d02 fbbd 570c eb3d
00000110: 1fce 88bd ab6f 533d 0246 3d3d e22f 1abe
00000120: d653 a23d a39d 9fbd d621 65be 91a5 3e3e
00000130: 6e8e d23c 7c03 2fbe 1f00 abbd 59f9 933d
00000140: f6d0 093e 2eec c73d 9a08 fa3d bc6d 073e
00000150: 3607 06be 96f7 0ebe 209d 07be bf26 f93d
00000160: 3470 9bbd 9bc8 8abc 1fae fd3d f3d7 ed3d
00000170: 3f5d c7bd d05d 023e 5d1e 833d 1268 cc3d
00000180: 7262 c7bd 7e84 46be afcf c73d a12f 1ebe
00000190: 0fe4 f6bd b723 28be 011c 0ebe b020 edbd
000001a0: b259 f9bd a19c 8cbd 3a49 e1bd db6c 61be
000001b0: c885 48be b3a8 05bd 5b27 063e 33fc f23d
000001c0: 0d18 53be 58b4 3a3d 0a35 5e3e ccb1 103e
000001d0: f870 753d 08b3 e4bd ac30 9e3d ddbf 1a3e
000001e0: d9c1 2c3c 0aa8 6ebd 15f4 2cbe 319d 3d3e
000001f0: d59a b4bd 2de7 373d ad1e 243e ab2f afbd
00000200: aa04 2b3e a345 5fbd f27b 983c ada5 2fbe
00000210: 9a08 d2bd 51a0 e5bd fbaa 67be 208b dbbd
00000220: bf82 163e ba05 fc3d fc4b acbc a891 20bc
00000230: a8c6 073e fe41 a2bc ecd2 75be fb62 39be
00000240: e103 95bd ec13 ad3d e294 293e 3e35 acbd
00000250: 1e3c 4f3d d2fa 2fbe 34d5 583e 3e07 203e
00000260: fe38 26bd 1197 a5bd af1e dabd ab62 123e
00000270: 6d1a a4bd ccfa b4bb e4e7 bbbd 4fdb 313e
00000280: e701 363e d03c aabd cc90 30be af58 4abe
00000290: 9bc9 ba3d e557 45be fa09 0ebd eb63 e83d
000002a0: a43b 273e 12f5 13bd ef68 a8bd 1771 21be
000002b0: 9a47 bd3d fc58 02be 4182 0f3e 4275 333e
000002c0: f6c1 11be 4896 c13c 3b41 203d 219c 563e
000002d0: f211 e8bd f37b 06be faaf febd 7ee0 1bbe
000002e0: b1b3 a3bd 5a2d 8f3d 8946 6e3e b0f9 1cbe
000002f0: ddd1 093c 1049 153e f385 17be 9fa4 ddbc
00000300: 7154 ee3d b6d1 1cbe bde6 373d 930f 1d3e
00000310: efd1 073e c2ed 1abc e196 24be 5a78 46bd
00000320: 1678 4cbe 6d3c 43bb e4a7 013e 1be3 5fbe
00000330: ac94 0cbc d04f da3d 6046 45be 3def d33b
00000340: 72c9 b2bd 53dd c33d c40c 24be 5ff0 cfbd
00000350: 7abe 103a 8ba0 fa3d fa90 003e 94c8 56be
00000360: 4a06 30be 0ad3 453e f630 1bbe 3252 3a3c
00000370: a5e3 f03d d392 a23d c487 65be 1e5a 6f3d
00000380: 8a06 eabd 869b 033e 3ff5 17be c389 9c3d
00000390: 86dc aebd 1485 e33c 103f 993d c1af 76be
000003a0: a222 41be 8321 d4bd ad5c a53d 28e1 9dbc
000003b0: d711 c43d fc98 50bd 6883 4fbe 0eeb a9bd
000003c0: da04 83bd 1b0c 303e c490 d83d 9349 d53d
000003d0: b619 493c b8ae 363e 41de 023e 69b7 d5bb
000003e0: 6543 b3bc 06ff 49bc b222 de3b 6efb 1dbd
000003f0: 8490 293d 731c aebb 6c67 283e 7795 fdbd

fc1.bias f4 [128]
-0.16078874 -0.107142836 -0.111986294 0.05731626 -0.012418348 0.0721786 -0.16461489 0.036538754
-0.25196537 0.15510553 -0.15891421 -0.16523519 -0.12989855 0.13212241 0.25616312 -0.12849465
0.013582024 0.18915352 -0.043543633 0.028642884 0.036294177 -0.13816404 -0.11588654 0.19385712
-0.16889545 0.08882027 0.2482704 0.042182572 -0.103234485 -0.004908483 0.07158685 0.22188267
-0.11842882 -0.16016012 -0.16039085 -0.021506514 -0.0210937 -0.10244128 -0.213564 -0.17589925
-0.10168942 -0.05597782 -0.1349717 0.07727059 0.09664364 -0.15131015 0.00090192445 0.21640429
0.12144132 -0.19149055 0.06724798 -0.024394343 0.12842265 0.096924536 -0.10110572 -0.14084692
0.1682729 -0.0580434 0.12915018 -0.09384216 -0.068219215 0.028238023 0.21475537 -0.12299686
0.06760854 0.009235958 0.12848873 0.00921732 -0.044302784 0.11393093 -0.1601105 -0.17150609
-0.23663527 0.19048853 -0.043483928 -0.19254623 0.14582638 0.29507825 -0.14395064 -0.076607436
-0.14461964 -0.22039123 -0.08247326 0.08476733 0.08414464 -0.17441061 -0.1834643 0.12202691
-0.23060884 0.08887693 -0.0051110834 -0.07275808 0.007255586 0.101027176 0.2808832 0.17201014
-0.07506613 -0.1031359 -0.22220668 0.26407105 0.012626891 -0.023553845 0.06083004 -0.07689239
-0.09745274 0.011088403 0.22631063 -0.18238871 -0.09081138 -0.052433956 -0.003590883 0.11337567
0.04574232 0.02111214 -0.048944112 0.12162112 0.092627764 0.07702652 -0.1351714 -0.059227757
0.14784141 -0.03807948 0.11075047 -0.19849588 0.02235296 0.038643166 -0.042371348 0.07283604
00000000: cea5 24be b46d dbbd 1259 e5bd 74c4 6a3d
00000010: 5476 4bbc 60d2 933d ce90 28be a9a9 153d
00000020: 9b01 81be fcd3 1e3e 68ba 22be 6a33 29be
00000030: 2004 05be 194b 073e d027 833e 1a94 03be
00000040: 2387 5e3c 76b1 413e cf5a 32bd 7ba4 ea3c
00000050: 34a9 143d e07a 0dbe ec55 edbd 7b82 463e
00000060: eef2 2cbe 67e7 b53d 993a 7e3e a2c7 2c3d
00000070: 9a6c d3bd 57d7 a0bb 209c 923d 3635 633e
00000080: cf8a f2bd 0401 24be 803d 24be 6e2e b0bc
00000090: b2cc acbc bccc d1bd 85b0 5abe ef1e 34be
000000a0: 8b42 d0bd 0049 65bd 0536 0abe 0b40 9e3d
000000b0: 1aed c53d 0cf1 1abe 206f 6c3a 1699 5d3e
000000c0: 3ab6 f83d 1916 44be 4fb9 893d a5d6 c7bc
000000d0: 3a81 033e 5f80 c63d 8410 cfbd 2d3a 10be
000000e0: bb4f 2c3e ebbe 6dbd f23f 043e 5230 c0bd
000000f0: 84b6 8bbd 6d53 e73c d5e8 5b3e c7e5 fbbd
00000100: 5976 8a3d 6a52 173c 8d92 033e 3e04 173c
00000110: d676 35bd 9f54 e93d 02f4 23be 4b9f 2fbe
00000120: 8450 72be 6d0f 433e 341c 32bd d72a 45be
00000130: 8353 153e 7f14 973e cc67 13be 5ce4 9cbd
00000140: 2c17 14be 3dae 61be bee7 a8bd 7e9a ad3d
00000150: 0654 ac3d b298 32be 11de 3bbe 3fe9 f93d
00000160: b924 6cbe 1c05 b63d e07a a7bb 3002 95bd
00000170: 44c0 ed3b 56e7 ce3d eccf 8f3e 6d23 303e
00000180: 45bc 99bd ea38 d3bd 268a 63be 5234 873e
00000190: 05e1 4e3c fef3 c0bc ec28 793d c279 9dbd
000001a0: 4d95 c7bd 22ac 353c f9bd 673e 1bc4 3abe
000001b0: 51fb b9bd fdc4 56bd 0555 6bbb 8131 e83d
000001c0: 4d5c 3b3d 5ef3 ac3c 9f79 48bd 7e14 f93d
000001d0: a0b3 bd3d 15c0 9d3d 5f6a 0abe ce98 72bd
000001e0: bd63 173e 3bf9 1bbd 24d1 e23d 8142 4bbe
000001f0: 8e1d b73c 4c48 1e3d 948d 2dbd 102b 953d

fc2.weight f4 [64, 128]
0.056164593 -0.03488584 -0.06572821 -0.06080437 -0.033921666 -0.086953655 0.026230486 0.023786994
-0.03852312 0.06524067 -0.108312465 0.043493766 0.040098112 -0.023884803 0.0050567156 -0.029554108
0.021825964 -0.04510629 0.13498023 -0.12586793 -0.019013058 -0.07507005 0.0061809747 0.0032377117
0.04995637 0.04854704 -0.08084553 -0.012941705 -0.13183017 -0.025775691 0.010685284 -0.09381409
0.03379259 0.056450088 0.08138416 -0.057343163 0.023670405 0.03634271 0.103349395 0.096664794
-0.04796368 -0.10736541 0.0040176604 0.033697635 -0.034770206 -0.069470964 -0.080280796 -0.056676842
0.027254453 -0.1363122 0.0291105 -0.081328094 0.045506164 0.08188956 -0.09847185 -0.10926302
0.040896792 0.049147166 -0.011806579 -0.009952636 -0.013086083 0.0059451666 -0.12419808 0.024106622
0.07350176 0.14052093 0.048967667 0.0051617315 -0.01613104 -0.08982155 -0.0026986569 -0.014725112
-0.0031196533 -0.058319684 0.08311113 0.023173727 -0.023284364 -0.0028182282 -0.027295828 -0.041213
-0.05450826 -0.017941507 0.037662786 -0.03102806 -0.018885842 0.022443024 -0.033642635 -0.015168861
0.07200538 -0.012195388 -0.019796668 0.0030803306 0.013613999 -0.07409554 0.04541412 0.011715595
0.058279634 0.0016488326 0.0136090405 -0.025323711 -0.05013907 -0.0839388 -0.04832925 -0.082352854
-0.0037695882 -0.039371844 -0.061793502 0.047642414 0.05697211 -0.018297574 -0.09066697 -0.022824112
0.08344003 -0.02133489 -0.018696891 -0.0074395128 0.090515725 0.062228493 -0.035518806 -0.0819848
-0.093386404 0.061827715 -0.025537571 -0.03559905 0.017722595 -0.056569595 0.053148605 0.20816286
-0.01665968 -0.12358745 0.04444312 0.07683119 -0.038959958 0.06015499 -0.11600266 -0.041316886
-0.087065965 -0.011718718 0.057352245 -0.026258081 -0.060274012 -0.07252135 -0.05744431 0.034388352
-0.00055654114 -0.031330086 0.051587135 0.022070818 -0.05233881 -0.06439828 0.022815624 -0.06022452
0.014748688 -0.033843953 0.07657126 0.041575514 -0.0144917 -0.08792919 -0.11428645 -0.13335052
-0.04656704 0.040744673 0.05194179 0.036212467 0.044871613 -0.08379051 -0.10294066 -0.09505731
0.0005446507 -0.056782015 0.07386177 -0.112730294 -0.07133554 -0.04566604 0.070337914 -0.040656053
-0.012160287 0.07801689 0.062817454 0.09662748 0.07904313 -0.03261055 0.06916256 0.012464446
-0.06516966 -0.019812293 -0.1097643 -0.095918186 -0.036142573 -0.018131254 0.02560023 -0.107751235
-0.10521702 -0.06358083 -0.08562825 0.0033404052 -0.03352609 -0.07090498 0.03201282 -0.08084938
0.08702923 -0.040171504 0.12544882 -0.08786082 -0.066568434 0.022409594 -0.03912239 0.053520102
0.010618277 0.094138585 0.05679069 0.035897955 -0.08423557 0.038762007 0.14093135 0.050044708
0.039814852 -0.074920975 0.018945904 -0.054848753 -0.08107853 0.07351915 -0.034020893 0.06182271
0.013068298 -0.06356008 0.07832451 0.018111715 -0.0030633241 -0.06583064 -0.074568406 0.0007085587
0.08285924 0.06918605 0.033264846 -0.018500749 0.03952683 -0.048123755 -0.057851434 -0.023499744
-0.009618253 0.0382941 -0.077749245 -0.12777305 -0.017519677 -0.010990005 -0.040663857 -0.013814662
0.047030002 0.033368003 0.06763846 0.14172903 0.058543064 -0.09933903 0.0985602 0.04828946
00000000: d80c 663d 74e4 0ebd 839c 86bd 010e 79bd
00000010: 72f1 0abd c214 b2bd 51e1 d63c f1dc c23c
00000020: 6bca 1dbd e79c 853d edd2 ddbd 8526 323d
00000030: eb3d 243d 10aa c3bc ceb2 a53b 751b f2bc
00000040: 5dcc b23c 60c1 38bd 4238 0a3e 86e3 00be
00000050: 46c1 9bbc 54be 99bd c689 ca3b ca2f 543b
00000060: 0d9f 4c3d 43d9 463d 5792 a5bd 7209 54bc
00000070: 7dfe 06be 8b27 d3bc 5411 2f3c 9a21 c0bd
00000080: 196a 0a3d 3538 673d bdac a63d aae0 6abd
00000090: 70e8 c13c 18dc 143d d9a8 d33d 31f8 c53d
000000a0: 9075 44bd 65e2 dbbd 94a6 833b 8806 0a3d
000000b0: 346b 0ebd cb46 8ebd 426a a4bd fa25 68bd
000000c0: bb44 df3c 6d95 0bbe 2579 ee3c 588f a6bd
000000d0: ac64 3a3d b7b5 a73d 9cab c9bd 4ac5 dfbd
000000e0: 6583 273d 8a4e 493d 6270 41bc 6210 23bc
000000f0: 0367 56bc accf c23b 905b febd 407b c53c
00000100: 1788 963d b8e4 0f3e 5292 483d be23 a93b
00000110: 3e25 84bc 5cf4 b7bd f3db 30bb 9941 71bc
00000120: 1973 4cbb 9fe0 6ebd 2b36 aa3d d4d6 bd3c
00000130: dabe bebc 06b2 38bb 809b dfbc f6ce 28bd
00000140: 0e44 5fbd 11fa 92bc 4b44 1a3d 8f2e febc
00000150: 7bb6 9abc 6fda b73c dccc 09bd d086 78bc
00000160: 8f77 933d 2acf 47bc 9f2c a2bc 5fdf 493b
00000170: 400d 5f3c 67bf 97bd 2804 3a3d c4f2 3f3c
00000180: a0b6 6e3d a41d d83a 74f8 5e3c ac73 cfbc
00000190: a05e 4dbd 1be8 abbd e4f4 45bd 9da8 a8bd
000001a0: 320b 77bb 5f44 21bd 2f1b 7dbd b124 433d
000001b0: 965b 693d cbe4 95bc 9baf b9bd a2f9 babc
000001c0: 9be2 aa3d 82c6 aebc 392a 99bc 28c7 f3bb
000001d0: 4f60 b93d 4ee3 7e3d 2b7c 11bd a6e7 a7bd
000001e0: 5f41 bfbd 0f3f 7d3d 2b34 d1bc 4fd0 11bd
000001f0: fa2e 913c 85b5 67bd 5ab2 593d a528 553e
00000200: e279 88bc 6b1b fdbd fd09 363d ac59 9d3d
00000210: 7a94 1fbd 1465 763d cd92 edbd e53b 29bd
00000220: a44f b2bd deff 3fbc 30ea 6a3d 301b d7bc
00000230: e2e1 76bd 1386 94bd ba4a 6bbd cdda 0c3d
00000240: d8e4 11ba fa53 00bd 084d 533d dccd b43c
00000250: 3861 56bd 3fe3 83bd d5e7 ba3c fcad 76bd
00000260: 7ba4 713c f59f 0abd 65d1 9c3d 164b 2a3d
00000270: 986e 6dbc 3814 b4bd 040f eabd 0a8d 08be
00000280: 15bd 3ebd e3e3 263d eac0 543d 8653 143d
00000290: 4ccb 373d 5c9a abbd 8ed2 d2bd 68ad c2bd
000002a0: e4c6 0e3a 4294 68bd d744 973d 24df e6bd
000002b0: 5e18 92bd 500c 3bbd 530d 903d f686 26bd
000002c0: f13b 47bc 52c7 9f3d 70a6 803d a1e4 c53d
000002d0: 5de1 a13d a492 05bd 1aa5 8d3d ad37 4c3c
000002e0: ac77 85bd 644d a2bc 1bcc e0bd c170 c4bd
000002f0: 3c0a 14bd ff87 94bc 93b7 d13c aeac dcbd
00000300: 057c d7bd ab36 82bd dd5d afbd b3ea 5a3b
00000310: a752 09bd a136 91bd e01f 033d 5c94 a5bd
00000320: 623c b23d e08a 24bd a875 003e 60f0 b3bd
00000330: 0855 88bd 5394 b73c cd3e 20bd e537 5b3d
00000340: 48f8 2d3c bbcb c03d 5b9d 683d bc09 133d
00000350: b383 acbd e9c4 1e3d 4f50 103e aefb 4c3d
00000360: e614 233d 2b70 99bd 7134 9b3c 16a9 60bd
00000370: 800c a6bd 3591 963d 7e59 0bbd cf39 7d3d
00000380: 6a1c 563c ca2b 82bd 9a68 a03d 055f 943c
00000390: 0dc2 48bb 37d2 86bd 52b7 98bd 92be 393a
000003a0: 1bb2 a93d 6ab1 8d3d b840 083d e28e 97bc
000003b0: e3e6 213d 6a1d 45bd a0f5 6cbd 8982 c0bc
000003c0: e195 1dbc 46da 1c3d ff3a 9fbd f0d6 02be
000003d0: 6d85 8fbc 6c0f 34bc 258f 26bd e456 62bc
000003e0: 88a2 403d e3ac 083d 0886 8a3d 6a21 113e
000003f0: daca 6f3d 4372 cbbd eed9 c93d 2bcb 453d

fc2.bias f4 [64]
0.06429933 -0.094613545 0.00036060758 -0.08799175 0.11658277 -0.017561048 0.029151432 -0.098758295
0.092937745 0.045827802 0.017743053 0.020448988 0.09651434 -0.0011830222 0.02618708 0.0053303423
-0.05435954 0.045756426 0.032296374 -0.05355096 0.064844266 0.018486012 0.015499357 0.055758733
0.044052225 0.045445334 -0.020225236 -0.087265186 0.04491608 -0.003356777 0.0582092 0.0061602523
0.106420204 0.016741656 -0.06090059 0.027356287 0.037685476 0.018017052 -0.07053862 -0.08868472
-0.055277195 0.12176342 -0.0013713682 -0.04687855 0.019904014 0.03309454 0.1008968 -0.08249695
0.105701625 0.10880867 -0.04883796 -0.07376885 -0.08511961 -0.045051545 0.040663403 -0.026921686
0.018074267 0.07820565 -0.059004948 -0.0331346 0.06525392 -0.029759865 0.006649477 0.052256446
00000000: 5eaf 833d bfc4 c1bd ee0f bd39 0535 b4bd
00000010: f3c2 ee3d 30dc 8fbc fcce ee3c ca41 cabd
00000020: 2556 be3d efb5 3b3d e159 913c a384 a73c
00000030: 4fa9 c53d a30f 9bba 4a86 d63c 27aa ae3b
00000040: 1ca8 5ebd 176b 3b3d 3449 043d 4058 5bbd
00000050: 12cd 843d fa6f 973c 04f1 7d3c 4563 643d
00000060: 1b70 343d e324 3a3d 65af a5bc 17b8 b2bd
00000070: ecf9 373d 5ffd 5bbb c56c 6e3d f1db c93b
00000080: d6f2 d93d cc25 893c e672 79bd 4b1a e03c
00000090: 165c 1a3d 7f98 933c 8d76 90bd 56a0 b5bd
000000a0: 576a 62bd 1a5f f93d 7bbf b3ba b903 40bd
000000b0: be0d a33c 248e 073d fba2 ce3d 29f4 a8bd
000000c0: 187a d83d 14d7 de3d 500a 48bd 1f14 97bd
000000d0: 3153 aebd f887 38bd ab8e 263d de8a dcbc
000000e0: 7c10 943c 492a a03d 2caf 71bd 25b8 07bd
000000f0: d9a3 853d f6ca f3bc dbe3 d93b db0a 563d

fc3.weight f4 [32, 64]
-0.083681434 0.0737444 -0.024630131 0.124148704 -0.027219571 -0.07362446 0.081368774 0.029599028
-0.026651813 0.053266324 -0.061802384 -0.03936922 -0.09039531 0.004403257 -0.06536619 0.083196014
0.018696882 -0.12250457 -0.13137858 -0.036244627 -0.0067492346 0.06374568 0.096443765 -0.05619458
-0.101344064 -0.008360225 -0.08272335 -0.12584512 -0.13630894 0.06371776 -0.14193314 0.05703693
-0.02690454 -0.081006415 0.098930806 -0.0030793815 0.05090555 -0.124223694 -0.11617343 -0.03922709
-0.0112560615 -0.07003718 -0.08619998 -0.13511325 -0.12198079 -0.056452863 -0.053449728 0.016441917
0.011402699 0.08808626 -0.114167415 0.0040012402 0.10374277 0.097809926 0.021107515 -0.08884065
-0.12865056 0.089759745 0.008011203 -0.114751354 0.07436416 0.030029329 0.09775153 -0.13121141
0.0376482 -0.025786351 0.06528098 -0.064368136 -0.14517163 -0.1078213 0.08975795 -0.08844686
0.07265705 0.101648636 0.06784645 -0.0032251524 0.051223345 -0.05941699 -0.10765421 0.10828721
0.07633351 -0.10121698 -0.039836757 0.018860213 -0.10812012 0.018536288 -0.072919056 -0.090316534
-0.059377916 -0.11085858 0.019239943 -0.072753295 -0.14442043 0.08373327 -0.06837404 -0.073470555
0.050859448 0.07716314 -0.049242176 -0.042233013 -0.14488488 0.022358354 0.015488665 0.057137802
0.05091288 -0.06561519 -0.13991202 -0.12984493 0.0795366 0.018557865 -0.17240255 0.01703837
-0.111122906 -0.1437549 -0.025927175 0.06832367 -0.09178219 0.104945734 -0.12193882 0.11769335
0.0069284164 -0.103258334 -0.0043808464 -0.008489522 -0.10422272 -0.05791581 -0.045602158 -0.09180257
0.049636677 -0.02618693 0.11838779 -0.048355862 -0.04738403 -0.049822114 -0.08709517 0.03659287
0.07684263 0.04510541 0.0943322 0.045324814 0.020789558 0.070130594 -0.020788642 -0.13492596
0.06579293 -0.075317174 0.08293983 -0.07528939 -0.08556165 -0.019730732 0.045941234 -0.11420721
-0.047436062 0.035096064 0.10798635 -0.05487324 -0.059095804 0.011440324 0.056879096 -0.06260836
-0.028126732 -0.060389385 -0.06357011 -0.06646315 -0.0042914157 0.12954012 -0.09703656 -0.032234102
0.004387753 -0.105818234 -0.10260513 0.07878875 -0.02513284 0.00964392 -0.032181997 -0.054375324
0.07083691 0.06871296 -0.049421612 0.027537204 0.060471542 -0.06668157 -0.009672073 0.035173103
-0.08221508 0.119452655 0.016026435 0.08868512 0.07726075 0.08859214 -0.07959994 -0.028429363
-0.16446239 0.054761313 -0.052531518 -0.054831732 0.0068074786 -0.010783867 0.08040764 -0.049333706
-0.050983302 -0.0653605 -0.039026305 -0.14540936 -0.08510081 -0.034421787 0.06502055 -0.0028153595
0.027383331 0.09287904 -0.124686085 -0.01547368 -0.17542219 0.009316388 0.009051944 0.15179099
-0.12054894 -0.20174883 -0.06858174 -0.06664455 -0.048863735 -0.014802005 -0.09978664 -0.0591724
-0.05128245 -0.12788954 0.055952057 -0.1107561 0.07405551 -0.07555356 0.085333765 0.08430739
-0.06479606 -0.17667574 0.084010154 0.024693487 0.07861792 -0.11439215 0.11478843 0.10689088
-0.0019267076 -0.040961687 0.0634933 -0.062536605 0.02056376 -0.07265649 0.035388287 0.0809673
0.05698522 -0.10342335 -0.07929912 -0.060988083 0.017290646 -0.12327044 -0.10871986 0.0011041499
00000000: 2c61 abbd 4e07 973d 21c5 c9bc ad41 fe3d
00000010: 94fb debc 6cc8 96bd aca4 a63d a979 f23c
00000020: e754 dabc ca2d 5a3d 7f24 7dbd 9f41 21bd
00000030: 2d21 b9bd 3249 903b b6de 85bd ac62 aa3d
00000040: 342a 993c ade3 fabd 1b88 06be 3f75 14bd
00000050: af28 ddbb 188d 823d 4f84 c53d 4a2c 66bd
00000060: 7a8d cfbd 53f9 08bc dc6a a9bd 8bdd 00be
00000070: 9294 0bbe 757e 823d ec56 11be 8e9f 693d
00000080: e966 dcbc b1e6 a5bd 3c9c ca3d 73cf 49bb
00000090: 5782 503d fe68 febd 56ec edbd 96ac 20bd
000000a0: 586b 38bc a76f 8fbd 9d89 b0bd 215b 0abe
000000b0: 10d1 f9bd 1e3b 67bd 1aee 5abd 33b1 863c
000000c0: 63d2 3a3c 9266 b43d 9bd0 e9bd d61c 833b
000000d0: 1777 d43d 9250 c83d abe9 ac3c 16f2 b5bd
000000e0: f9bc 03be f5d3 b73d 6c41 033c c202 ebbd
000000f0: 3d4c 983d 1100 f63c f431 c83d 495c 06be
00000100: 0035 1a3d e63d d3bc 09b2 853d 71d3 83bd
00000110: dfa7 14be 6ad1 dcbd 04d3 b73d a123 b5bd
00000120: 38cd 943d 292d d03d 14f3 8a3d 145d 53bb
00000130: 92cf 513d 3b5f 73bd cf79 dcbd afc5 dd3d
00000140: be54 9c3d d94a cfbd de2b 23bd bc80 9a3c
00000150: 156e ddbd 6ad9 973c 9656 95bd e0f7 b8bd
00000160: 4236 73bd d309 e3bd 169d 9d3c aeff 94bd
00000170: f3e2 13be 597c ab3d b007 8cbd bb77 96bd
00000180: ff51 503d b507 9e3d 2ab2 49bd 86fc 2cbd
00000190: b45c 14be de28 b73c 2bc4 7d3c 5409 6a3d
000001a0: 068a 503d 4261 86bd 1945 0fbe 12f6 04be
000001b0: 16e4 a23d aa06 983c 4b8a 30be 0d94 8b3c
000001c0: 6894 e3bd 7c34 13be 3a65 d4bc 48ed 8b3d
000001d0: 4df8 bbbd caed d63d 0fbb f9bd 3609 f13d
000001e0: c507 e33b 1b79 d3bd 348d 8fbb a317 0bbc
000001f0: b972 d5bd 2139 6dbd 54c9 3abd fc02 bcbd
00000200: d44f 4b3d f985 d6bc 4c75 f23d cc10 46bd
00000210: c215 42bd 4612 4cbd f45e b2bd 68e2 153d
00000220: ab5f 9d3d 73c0 383d 3e31 c13d 83a6 393d
00000230: dd4e aa3c a1a0 8f3d f14c aabc 082a 0abe
00000240: 72be 863d e43f 9abd 5cdc a93d 5331 9abd
00000250: f23a afbd 58a2 a1bc e02c 3c3d 78e5 e9bd
00000260: 514c 42bd e4c0 0f3d f327 dd3d c3c2 60bd
00000270: 710e 72bd 3270 3b3c 0efa 683d d038 80bd
00000280: 086a e6bc dc5a 77bd 0c31 82bd d51d 88bd
00000290: 019f 8cbb 2aa6 043e 1bbb c6bd e807 04bd
000002a0: 24c7 8f3b 3bb7 d8bd a322 d2bd ff5b a13d
000002b0: 63e3 cdbc 8801 1e3c 45d1 03bd a9b8 5ebd
000002c0: f112 913d 61b9 8c3d 516e 4abd b495 e13c
000002d0: 02b1 773d 5990 88bd 9d77 1ebc ac11 103d
000002e0: 6160 a8bd 98a3 f43d df49 833c 8ba0 b53d
000002f0: e23a 9e3d cc6f b53d 4b05 a3bd b2e4 e8bc
00000300: d468 28be 664d 603d 4a2b 57bd 3d97 60bd
00000310: 4511 df3b d1ae 30bc c3ac a43d 2412 4abd
00000320: ded3 50bd badb 85bd 0cda 1fbd 31e6 14be
00000330: 5549 aebd dcfd 0cbd 7e29 853d e581 38bb
00000340: 0253 e03c 5e37 be3d 6b5b ffbd 5185 7dbc
00000350: e0a1 33be c3a3 183c 9b4e 143c 196f 1b3e
00000360: 5de2 f6bd 3f97 4ebe 9574 8cbd f07c 88bd
00000370: 5725 48bd 1c84 72bc f05c ccbd c25e 72bd
00000380: 8c0d 52bd 7af5 02be fc2d 653d 18d4 e2bd
00000390: 6aaa 973d d3bb 9abd 78c3 ae3d 5aa9 ac3d
000003a0: ccb3 84bd 7cea 34be 840d ac3d ff49 ca3c
000003b0: 6f02 a13d 6e46 eabd 3216 eb3d 9be9 da3d
000003c0: 9489 fcba 71c7 27bd c608 823d 3113 80bd
000003d0: 5575 a83c edcc 94bd 4ff3 103d 2fd2 a53d
000003e0: 5669 693d 9fcf d3bd 9467 a2bd a4ce 79bd
000003f0: 1da5 8d3c 3675 fcbd 85a8 debd 1fb9 903a

fc3.bias f4 [32]
-0.059393983 0.05865045 0.03444107 0.00050089776 -0.014564711 0.07281889 0.097120546 -0.0226607
0.07764718 0.025160242 -0.07527936 0.14255914 -0.02168267 -0.027420567 0.028747618 0.14938426
0.021431563 0.11709711 -0.07291825 -0.03670613 0.0147986915 -0.052965283 0.0742129 0.11591491
0.12513624 0.08208322 -0.07394488 0.106005974 -0.05554412 0.19822177 0.08999251 0.07537271
00000000: 1b47 73bd 743b 703d 1412 0d3d ae4e 033a
00000010: d3a0 6ebc 1222 953d 23e7 c63d efa2 b9bc
00000020: 7c05 9f3d da1c ce3c 112c 9abd 06fb 113e
00000030: db9f b1bc 19a1 e0bc 2080 eb3c 30f8 183e
00000040: 3f91 af3c 9cd0 ef3d 2a56 95bd 2b59 16bd
00000050: 3676 723c 20f2 58bd effc 973d cc64 ed3d
00000060: b723 003e 3f1b a83d 6a70 97bd a919 d93d
00000070: 3b82 63bd a6fa 4a3e fe4d b83d 025d 9a3d

fc4.weight f4 [1, 32]
0.14079961 0.10086719 -0.017994784 0.10119714 0.0009078017 0.13437776 -0.008907936 -0.0017062761
-0.11840818 0.011618196 0.09188797 -0.06458934 0.12216774 0.010071113 -0.01231601 -0.116736025
-0.006251308 -0.17448296 0.057328004 0.03825044 -0.0452258 0.15122674 -0.04305898 -0.057381365
-0.16270562 -0.008716557 0.017469838 -0.060777854 -0.07000442 -0.09975038 -0.06678294 -0.069654055
00000000: c62d 103e 7593 ce3d cc69 93bc 7240 cf3d
00000010: 8af9 6d3a 539a 093e 97f2 11bc 20a5 dfba
00000020: fd7f f2bd 3f5a 3e3c c32f bc3d 6a47 84bd
00000030: 1433 fa3d 4f01 253c 17c9 49bc 4c13 efbd
00000040: c6d7 ccbb a9ab 32be c5d0 6a3d 7eac 1c3d
00000050: b03e 39bd 2fdb 1a3e 9d5e 30bd b908 6bbd
00000060: 4d9c 26be e4cf 0ebc e81c 8f3c 33f2 78bd
00000070: 7a5e 8fbd ed49 ccbd 7ec5 88bd c9a6 8ebd
