bootstrapping_connect_four_heuristic.pth (torch, 58396 bytes, 7 tensors)

fc1.weight f4 [128, 25]
000000 b4 0f 38 bd b8 18 0a 3d 79 ae b3 bd 58 66 1b 3e
       -0.04493685 0.03371498 -0.087735124 0.1517576
000010 da ef 24 be af d9 83 be fb 14 4e be f3 d9 d4 3d
       -0.16107121 -0.25752017 -0.20125191 0.10393133
000020 b7 f0 a2 3d a0 42 94 be 49 49 a6 be 6f f8 21 be
       0.07956069 -0.2895708 -0.32477787 -0.15817426
000030 51 ec 50 be fb 8b f3 be 58 0b 6d bd eb a9 ab bd
       -0.20402648 -0.47567734 -0.057872146 -0.08382019
000040 0c 5c cf 3e 5b df 8c bd ec 93 0d bd dc 2f 4a be
       0.40499914 -0.06878539 -0.034564897 -0.1974482
000050 d0 70 ab bd 8f ab a6 3d 28 65 40 3d b9 fa de be
       -0.08371127 0.08138191 0.04697147 -0.4355066
000060 af b9 75 bd 45 26 a1 bd ea 47 9b 3e 02 61 cc be
       -0.059991535 -0.078686275 0.30328304 -0.3991776
000070 5a ae 0b bc ae 08 ad bd ea ae 80 bd 41 b0 e4 be
       -0.008525455 -0.08448921 -0.06283362 -0.4466572
000080 3a 0e 94 3e 31 4a 03 bf 4f 1c 84 bd 1a ef fb 3c
       0.28917104 -0.5128508 -0.06450712 0.030753661
000090 10 f0 ca 3d 3f 10 b3 3d 0e 2b dc 3d e6 b7 ed bd
       0.099090695 0.08743333 0.107503995 -0.116073415
0000a0 b3 60 64 3e a8 04 76 3d 60 db 95 bd 54 fe db be
       0.22302513 0.060063034 -0.07317233 -0.42967474
0000b0 37 78 f4 3e 2a 3e a3 3b 1b ca 03 3d dc ac 21 3d
       0.47747967 0.004981776 0.032175165 0.039471492
0000c0 e5 e7 10 3d e4 5c df bc fa c3 2b be ab c2 81 3d
       0.0353774 -0.027265973 -0.16773978 0.06335958
0000d0 82 4c 82 3e 5a fb ca bb 40 2d 0e bf d2 7a 8a 3e
       0.25448996 -0.006194514 -0.55537796 0.2704683
0000e0 29 ed ca 3c 5a b4 92 bd 1d 66 0a be 9a 3e 96 be
       0.02477129 -0.071633056 -0.13515516 -0.29344636
0000f0 22 75 3f 3e 18 e4 86 be 6f 19 89 be 96 15 be bd
       0.18697026 -0.26345897 -0.26777217 -0.09281461
000100 b3 c1 39 be 21 a0 15 bd 22 31 56 3d 62 0e 27 bd
       -0.18140297 -0.036529664 0.05229295 -0.0407852
000110 5f ab 78 bc 8a 90 d1 bd 10 77 66 bd d5 b4 60 be
       -0.015177577 -0.10232647 -0.05626589 -0.21943982
000120 be e7 6f 3e ca 5e c7 bd a2 ad 89 be 27 ea 0a 3e
       0.23428246 -0.097348765 -0.26890284 0.13565885
000130 5b 30 94 3e 4f d9 c5 be e4 8e ba bb 69 00 da 3d
       0.28943142 -0.38642356 -0.0056933034 0.106446095
000140 d1 b3 19 3e 69 be a7 be 23 77 fa be 1c 98 10 bf
       0.15010001 -0.3276246 -0.4891902 -0.564821
000150 58 50 de be 39 6f 45 bd 7f 50 0f 3c 33 65 64 3e
       -0.43420672 -0.048201773 0.008747219 0.2230423
000160 d2 cd 59 3e 1d 77 28 bd 1d 3b 97 3d 90 2e 9f bc
       0.2126992 -0.04112922 0.07384322 -0.019431382
000170 d4 79 57 3d 17 31 47 bd 0f f6 ee 3d 89 d0 46 3d
       0.05260642 -0.0486308 0.11668026 0.04853872
000180 42 38 c8 b9 21 3a 4a 3d 9c 75 b0 3c 2e 95 58 3c
       -0.00038188888 0.049371842 0.021540456 0.013219161
000190 e5 e6 26 3e d7 e2 72 3e 90 7e 24 3e 97 01 d3 be
       0.16299017 0.23719345 0.16063905 -0.4121215
0001a0 f7 b4 c2 be e6 35 49 be f8 2c 35 3e c9 30 83 be
       -0.3802869 -0.19649467 0.17692935 -0.25623158
0001b0 ed e3 bd be 46 1a fe bc 9f da 34 3e 13 10 85 be
       -0.37087956 -0.031018388 0.17661522 -0.25988826
0001c0 6e 09 23 be 92 78 0e 3e 1b 24 b9 3d 0c 46 a9 bd
       -0.15921566 0.13913181 0.0904009 -0.082653135
0001d0 75 b6 85 bd 22 c2 8f 3e da 22 d6 3d 01 ca 12 3d
       -0.065289415 0.280778 0.10455866 0.035837177
0001e0 cd 8d 9b bd 5b d7 ff bd 25 17 26 3e bb 26 19 3e
       -0.07595406 -0.12492248 0.16219766 0.14956181
0001f0 70 3b 14 3e 8b fd 58 3c 0e 15 ac 3d be 9c 39 be
       0.14475799 0.013244043 0.08402453 -0.18126199
000200 84 c5 ec bd 64 40 0b be fb 76 a5 bd 2c 06 a6 3e
       -0.115611106 -0.13598782 -0.08079334 0.32426584
000210 63 5a 9e be da c5 ee be 2a fc 9f 3c 4c 72 0e 3c
       -0.30928335 -0.46635324 0.01952942 0.008694243
000220 e1 ca d7 3e 64 21 22 3e c6 37 ed 3c f1 54 c6 3d
       0.42146972 0.1583305 0.028957259 0.0968417
000230 56 45 11 3d 27 36 e2 3d 01 bf 35 be 42 eb 13 3e
       0.035466515 0.11045485 -0.17748643 0.14445212
000240 d7 c5 f7 bc 83 d0 53 3d a4 cb 49 3e 80 d1 02 3d
       -0.030245705 0.051712524 0.19706589 0.031938076
000250 b3 11 c8 bd 76 24 cc 3d 4a 84 f7 bc 45 28 6e 3c
       -0.09769001 0.09967892 -0.030214448 0.014535968
000260 d8 81 b8 bd 81 e3 93 bc 38 e2 7e bc ee 55 c4 bc
       -0.09009141 -0.018052818 -0.015556864 -0.023966756
000270 02 ed 8b be 3e 79 2c be f3 c7 18 3f 81 e5 07 be
       -0.2732926 -0.16843125 0.596801 -0.13271143
000280 0c 34 a8 bd 94 0e 1a bf 0b 11 40 3e 50 1d bd bd
       -0.08213052 -0.60178494 0.18756501 -0.092341065
000290 b8 54 12 be e5 8b 8e bc 6a 45 9b bd 5e ad ae 3b
       -0.1429013 -0.017400691 -0.07581599 0.0053307256
0002a0 e4 aa 27 3e 64 e3 a1 3d 1f ac 95 bd 9f e9 0b bf
       0.16373783 0.079046994 -0.0730822 -0.5465335
0002b0 f8 24 c4 bc 63 6c b8 3c 68 48 9f 3d 97 dd 25 bd
       -0.02394341 0.02251262 0.07777482 -0.040494528
0002c0 c4 8f 8b bd d0 c7 5b bb b8 b8 de bd e5 71 b5 3d
       -0.068145305 -0.0033535846 -0.10875076 0.08859614
0002d0 b4 90 f9 bd 71 9a 89 be 1c d3 e1 be 60 14 2c 3f
       -0.12185803 -0.26875642 -0.44106376 0.6721859
0002e0 50 65 88 be aa 1d 96 bd dd ea 6a bc f3 4e 59 3d
       -0.26639795 -0.07329877 -0.014338222 0.053053807
0002f0 e5 5d b1 3d 0e df c6 bc 6d 8f 0a 3e 00 7b 6a 3e
       0.08660487 -0.024276283 0.13531275 0.22898483
000300 22 aa 0d bf 6b c0 b8 bc 25 39 eb bd b7 af ce 3d
       -0.5533773 -0.02255269 -0.11485509 0.10092109
000310 6e 2b a0 bd e9 14 2e bd 62 f7 4b 3d bc 51 ac bd
       -0.078207836 -0.04250041 0.04979647 -0.08414027
000320 0b fa cc bd 71 91 8e be 5f 55 53 be 41 4a ee bc
       -0.100086294 -0.27845338 -0.20638035 -0.029088141
000330 73 6f ec bd 29 c7 8f 3b 00 df ca 3e a8 c4 80 3d
       -0.11544695 0.0043877554 0.3962326 0.06287509
000340 bd cf 2c 3f 0d 70 49 bd de 9d 1d bd bd 44 d2 3c
       0.67504483 -0.049179126 -0.038480632 0.025667543
000350 52 6b cf be 5c fb 79 3d c4 51 d8 bd ab c1 3f bc
       -0.40511566 0.06103073 -0.105624706 -0.011703889
000360 95 4d 91 bd dc 44 cf bd 4f bb 38 bd 51 57 01 bd
       -0.07094876 -0.10120556 -0.045100506 -0.031577412
000370 54 4d 13 bd aa aa 9b bd a3 91 a6 bc 44 7c a2 3c
       -0.035962418 -0.07600911 -0.020333117 0.019834645
000380 d6 f8 15 3d b7 d7 8a bc 4e 7d f2 bd 77 a5 29 be
       0.03661426 -0.016948564 -0.11840306 -0.16567026
000390 a2 90 50 bc 10 d9 76 be d0 d1 16 3f 49 c9 af be
       -0.012729796 -0.2410624 0.589139 -0.34333256
0003a0 b6 00 8d be af 02 0e bf 99 87 08 3f 81 60 d2 bd
       -0.27539605 -0.55472845 0.53331906 -0.10272313
0003b0 82 44 01 bb ce 38 33 be 16 2a 09 be 09 6d e2 bd
       -0.0019724672 -0.17502138 -0.13394961 -0.11055953
0003c0 b9 7d e5 3d 84 29 ec bd 4e 66 0e be 62 b1 e1 bd
       0.1120562 -0.11531356 -0.13906214 -0.11020161
0003d0 9c df ba bb 40 42 5c bd a5 47 94 3d 9c 18 1a be
       -0.005702926 -0.05377412 0.072402276 -0.1504845
0003e0 97 be ab 3d 12 e2 d6 3d f7 b2 3e 3d 1b 4c 27 3d
       0.083859615 0.10492338 0.046557393 0.040844064
0003f0 61 55 1a be 26 33 91 3d 31 63 15 bd 6d f7 8b bd
       -0.15071632 0.07089834 -0.03647155 -0.06834302

fc1.bias f4 [128]
000000 f8 8d 65 3e 91 8b 59 be 80 39 ba bd 04 67 67 3e
       0.22417438 -0.21244647 -0.090929985 0.22597891
000010 cb cd 1e 3d 11 a6 fa be 95 4d ac be 66 19 cb be
       0.03877048 -0.48954824 -0.3365294 -0.39667815
000020 9a b1 90 be 8d 5f 06 be 84 1e e8 be 61 9f 70 3e
       -0.282605 -0.13122387 -0.45335782 0.23498298
000030 33 ea 9b be c4 89 99 be 1f 33 a8 be c9 99 c0 bd
       -0.30452117 -0.2998792 -0.32851502 -0.09404332
000040 d3 3f a6 3d 7a 5d 90 bd 3e 04 f5 be 63 c8 a4 bc
       0.08117642 -0.07049079 -0.478548 -0.020115083
000050 92 50 ab 3c 45 7a 1b bc cc ba c9 3e 67 e2 82 be
       0.020912442 -0.009489601 0.39400327 -0.25563356
000060 d3 57 ac 3e f0 98 00 3d 48 0e b6 3e 0e 66 2d be
       0.33660755 0.031395853 0.3555777 -0.16933462
000070 cf 68 a7 be 5a 08 61 be 73 c9 90 3e 64 50 dc 3e
       -0.3269715 -0.21975842 0.28278694 0.43030083
000080 68 01 00 bf df ab ab 3e 9a 0d 19 be 63 01 8e 3e
       -0.50002146 0.33529565 -0.14946595 0.27735433
000090 01 73 7e be 0d 2b a2 be c7 d3 6e be 3d b4 3c be
       -0.24848558 -0.3167347 -0.23322974 -0.1842813
0000a0 a5 5b 0d 3f 19 a3 de bd bc c3 4a be b4 e7 aa bd
       0.55217963 -0.10870952 -0.19801229 -0.08344975
0000b0 e7 dd ea be 1e f2 03 bf 00 3c 58 be 3d 11 15 bf
       -0.45872423 -0.51541317 -0.21116638 -0.5822943
0000c0 c8 c9 09 bd 3b ae a3 3e 4b 76 0a 3f 9a 83 76 be
       -0.0336397 0.31968865 0.5408675 -0.2407364
0000d0 4d 67 25 3d e2 77 65 be 20 89 c7 bd 86 d9 fa be
       0.04038172 -0.22409013 -0.097429514 -0.48994082
0000e0 88 6d 24 3e 3b 08 2f 3e e6 c6 b9 3d b4 45 b6 be
       0.16057408 0.17092983 0.0907114 -0.35600054
0000f0 55 e4 4d be 46 1a 9f 3d af e8 0c be e4 6d 45 be
       -0.20106633 0.07768683 -0.13760637 -0.19280201
000100 22 f0 c3 be 9f 9d 25 3e 53 51 ed 3e 3a f7 97 3d
       -0.38269144 0.16173409 0.46351108 0.074202016
000110 03 42 ce bd 87 9d 9d 3d 09 79 85 be cd 43 12 3f
       -0.100711845 0.076960616 -0.26068905 0.57134706
000120 08 ae 28 3e a1 d5 b4 be 5b 0b 36 be 1d da 8b be
       0.16472638 -0.35319236 -0.1777777 -0.27314845
000130 8e d7 a3 be 1a 4e 33 3e d2 1e b3 bd 5e 0a 7b 3e
       -0.32000393 0.17510262 -0.08746113 0.24515674
000140 4a e5 e0 be 69 0e 47 3e ee cf a9 be cf d9 67 be
       -0.43924934 0.19439091 -0.3316645 -0.22641681
000150 e1 b5 c0 3e 1c 52 85 be 55 ae 58 3e f9 14 05 bf
       0.37638763 -0.26039207 0.21160252 -0.51985127
000160 c0 8b 05 bf b0 30 4e bc c8 0a f3 3e e9 b7 86 3e
       -0.52166367 -0.01258485 0.47469163 0.26312187
000170 92 28 32 be 2e 0a db bd 18 b0 ae be d7 40 1a 3f
       -0.17398289 -0.10695301 -0.34118724 0.6025519
000180 81 47 b6 be 45 f5 6b be 5b 1c 20 bd 6e c0 0c 3e
       -0.35601428 -0.23042782 -0.039089542 0.13745281
000190 b5 99 9e bd c7 2e 63 3d 36 db 20 be de 28 81 3d
       -0.07744161 0.055464532 -0.15708622 0.06306623
0001a0 17 96 9e 3e b9 e3 14 3d 3f 96 af be 62 b7 e2 3c
       0.30973884 0.036349986 -0.34294316 0.027675334
0001b0 4f 45 a8 3d 3f c7 a9 3d 2e e8 1d 3e 0b e3 5c be
       0.082163446 0.08289956 0.15420601 -0.21570985
0001c0 42 b2 09 3f bd 6e 85 3e de 35 8f be 90 af a3 3e
       0.53787625 0.2606105 -0.27970785 0.3196988
0001d0 ff f6 c4 39 44 36 a7 be 64 0d 50 be f9 25 b6 bd
       0.0003756806 -0.3265859 -0.20317608 -0.088939615
0001e0 26 c6 15 3d 93 e1 ba be 38 56 0c bf 0a 87 50 3e
       0.036565922 -0.36500224 -0.5481906 0.20364013
0001f0 79 cf f1 3d a6 de 70 3e 1f e3 23 be 82 89 66 3d
       0.118071504 0.23522434 -0.16004609 0.05628348

fc2.weight f4 [64, 128]
000000 86 45 4f be 99 37 5c 3e 25 c6 18 be 46 5e c3 be
       -0.20241365 0.21505584 -0.14919336 -0.38157862
000010 b4 f6 cc be b7 25 25 3e 81 71 d3 39 27 0a 84 3d
       -0.4003197 0.16127668 0.00040329623 0.06447249
000020 b1 da 3d 3e 90 b0 2a be f3 83 3f 3a 51 df 54 3e
       0.18540455 -0.16668916 0.0007305734 0.20788313
000030 2d 1d d5 3d 77 9e 66 3e 5c d5 91 3e 88 bd b6 3d
       0.104059555 0.22521387 0.28483093 0.08922869
000040 00 66 99 bc 22 b7 29 3d 71 c0 84 3d d9 5d 76 3d
       -0.018725395 0.041434415 0.06482018 0.060148094
000050 3e 80 62 be 4d 88 92 bd 08 8f 82 be 50 d0 b8 3d
       -0.22119233 -0.071549036 -0.2549975 0.090241075
000060 34 84 91 be 2a 7b fe 3b 84 90 c9 be df 6f a6 3d
       -0.28421175 0.007766147 -0.3936807 0.081268065
000070 b7 80 07 3e 8f e6 dd 3d d7 b7 24 be 80 b3 4a be
       0.13232695 0.10834991 -0.16085754 -0.19795036
000080 56 b9 51 3d 5b 1e 94 bc 0c 15 9b be 8e 8b 8b be
       0.05120214 -0.01808088 -0.30289495 -0.2725491
000090 a6 6f 0a be 2c 93 b0 bb 0b 53 12 3d cb 15 2a 3e
       -0.13519153 -0.005388638 0.035723727 0.16609876
0000a0 0a 57 84 be c7 5f 20 be 46 07 61 3e 1d b0 38 be
       -0.25847656 -0.15661536 0.21975431 -0.18035932
0000b0 aa 66 85 bd 97 c9 0a ba f0 68 7c 3e 7d cc 86 3e
       -0.06513722 -0.00052943215 0.24649405 0.26327887
0000c0 59 2a 40 3d fa db a4 bd d2 42 83 be ba d3 e8 3d
       0.046915386 -0.0804977 -0.25636917 0.11368509
0000d0 07 d1 98 be 5c 44 8c 3d 9b cc 2a be 03 23 92 3d
       -0.29846975 0.06848976 -0.16679613 0.07135584
0000e0 7f b1 12 be 81 4c 60 bf 1c d7 51 be 67 19 d7 bd
       -0.14325522 -0.87616736 -0.20492214 -0.10502892
0000f0 2c 6d 12 bb 51 f3 19 bf 63 9a e8 3d 66 e8 dc bd
       -0.0022342904 -0.60136896 0.11357572 -0.10786514
000100 b3 52 4f 3d 78 e9 14 be 31 7c 0c bf 3f 0a 82 be
       0.050615977 -0.14542186 -0.54877 -0.25398442
000110 70 b0 dc 3a 50 38 72 bd 7f 6e 0d bd a5 57 fb be
       0.001683725 -0.059135735 -0.034529205 -0.49090305
000120 de 8e 7b be 14 70 59 3d 62 64 98 3d ec db 20 3e
       -0.24566218 0.0530854 0.074410215 0.15708894
000130 cf b7 66 3e 66 e3 5a 3c b1 f0 44 be ce 26 a8 bd
       0.22531055 0.01335988 -0.19232441 -0.082105264
000140 ae f0 d2 3d 8f cd 8c be 2f 5f 9a bd da 65 15 3d
       0.10299812 -0.2750058 -0.07537686 0.036474086
000150 df ad 8f 3d 28 a0 de bd c6 bb 1b be e4 16 a3 3d
       0.07015585 -0.10870391 -0.15208349 0.079633504
000160 1d fb 93 3d 0f db bb be 50 cc 92 be 9e cb f3 3c
       0.072256304 -0.36690566 -0.28671503 0.029760178
000170 3a d6 82 3d ca 27 c3 bd 9b 25 f6 3d 80 4f b6 be
       0.06388517 -0.095290735 0.120188914 -0.3560753
000180 ec 9d 18 3e 1f 8d 8e 3e 0b 9d c3 bd d7 83 7e bb
       0.14903992 0.27842042 -0.09551438 -0.0038835907
000190 9f cb 9f 3d 12 1b f6 bc ee e1 82 be 8e 7b be bd
       0.078025095 -0.030042205 -0.25562996 -0.0930091
0001a0 fc 7e 26 be 73 2c 4f bf 75 29 ed 3d ed 14 36 bf
       -0.16259378 -0.809272 0.11580173 -0.7112568
0001b0 d4 ac a0 bc f2 28 80 be a5 dd 55 bd c6 db c0 bd
       -0.01961366 -0.2503124 -0.05221333 -0.094169185
0001c0 5a dc 0d be af 18 65 be 10 28 f7 3d 6b 58 76 be
       -0.13853589 -0.22372697 0.12068188 -0.24057166
0001d0 ee d5 3b bd a8 51 82 3e fc e9 3a 3e f2 ae 15 3e
       -0.045858316 0.25452924 0.1825332 0.14617518
0001e0 d3 3e 5e 3d a1 2e 13 3e 2b bb ab 3d f6 19 da bd
       0.054259133 0.14373256 0.08385309 -0.10649483
0001f0 59 0f 34 3d 53 fb b2 bd 54 4d 6f 3e df 48 18 bf
       0.04395995 -0.087393425 0.23369342 -0.5948619
000200 92 c7 24 bd 8d 9b d1 3e 6a 45 6c bd 9c 7d ce bd
       -0.040229388 0.40938988 -0.057683386 -0.10082552
000210 4b 6f 4d 3c af c1 0d 3e 12 fe 97 3e 64 a2 9e 3d
       0.012538741 0.13843416 0.29686028 0.07745817
000220 46 54 35 3e db a9 f5 3d 6f b3 2f 3e 48 d8 44 be
       0.17707929 0.11995288 0.17158292 -0.1922313
000230 4a a4 ae 3d 65 d4 94 bd fd de 3a 3e cf ee 84 3d
       0.085274294 -0.072670735 0.18249126 0.064908616
000240 2f 59 62 be 49 f9 47 be f7 d5 1f 3e 6f 68 04 3b
       -0.22104333 -0.19528688 0.15608965 0.0020203849
000250 5f 25 22 be ac 02 0d bd 45 5e a1 be bb 53 af bd
       -0.15834568 -0.034426376 -0.31517234 -0.08560892
000260 0e c3 e7 bd a5 80 6a 3e d4 c3 1d be af 65 1e 3e
       -0.113165006 0.22900636 -0.15406734 0.15468477
000270 d7 b3 57 3e c2 5d 10 3f 5d 9b 5c be 33 9b 48 be
       0.21064697 0.56393063 -0.21543641 -0.19590454
000280 7a 5b d9 bd 29 67 5c be ee 47 2e be 59 dd 26 be
       -0.10613151 -0.21523727 -0.17019626 -0.16295375
000290 b5 3b 6d 3e 8d 37 1b 3e 5e 5d 19 3e 69 3c 18 3e
       0.23167308 0.1515791 0.14977023 0.14866795
0002a0 d7 ec 1c bd a6 da a3 3e 40 a8 84 3d ee 58 7a bb
       -0.038311806 0.32002753 0.06477404 -0.003819998
0002b0 52 9d 66 bd 7e 31 ec bd 98 31 fb 3d 52 1d 9d 3c
       -0.056302376 -0.115328774 0.12265319 0.01917902
0002c0 64 59 96 be 68 aa 96 bd 5d 26 43 be 92 07 39 be
       -0.29365075 -0.07356721 -0.19057603 -0.18069294
0002d0 e3 eb 8b bd db ee c1 3d 08 09 58 be 89 9b ee 3d
       -0.06832101 0.09469386 -0.21097195 0.1165076
0002e0 5b 69 3f be 89 56 91 be 3f d2 ee bd ba 24 7c be
       -0.18692534 -0.28386334 -0.11661195 -0.24623385
0002f0 5a 5d 3a bb cf 80 fc 3d da 6c 9c 3d 29 5e 23 be
       -0.002843699 0.12329256 0.07637949 -0.15953888
000300 49 4c 1f 3e 57 ca 4a be 88 3a 45 be dc 23 1d be
       0.15556444 -0.19803749 -0.19260609 -0.1534571
000310 9c 8f a2 3e 52 b4 3f be 27 9b b0 bd f1 d0 9a be
       0.3175019 -0.1872113 -0.08623343 -0.30237535
000320 1e 38 94 3d aa e8 be bc 00 01 38 bd 92 79 5c 3d
       0.07237266 -0.023304302 -0.04492283 0.053826876
000330 82 2f 60 bd 61 8e 12 3e 3b 16 b5 bc c3 c5 c0 bc
       -0.054732807 0.14312126 -0.022105327 -0.0235318
000340 43 bc 88 bd 10 5d 60 be 82 99 1c bd 85 73 c4 bd
       -0.06676533 -0.219105 -0.038232334 -0.09592346
000350 f2 21 46 3d 62 af ed bd 45 67 a7 be b4 f4 af 3d
       0.048372217 -0.11605717 -0.32695976 0.08591595
000360 3d e0 93 3d 95 a9 5e 3d 20 6b 1e be 04 8d 12 3e
       0.072205044 0.054360945 -0.15470552 0.14311606
000370 03 a9 de 3c 81 b7 b1 38 52 26 18 3e 57 f3 17 be
       0.0271802 8.474198e-05 0.14858368 -0.1483892
000380 32 ed d2 3d b8 46 9a 3e b5 a7 c7 bd 36 74 f6 bd
       0.10299148 0.3013208 -0.097487845 -0.12033884
000390 ee c1 06 3e 09 f7 d4 3d 0c 3b 6d be ec 27 99 bd
       0.13159916 0.10398681 -0.23167056 -0.074783176
0003a0 e3 ae b0 be 57 c0 e4 be f1 de a7 3d a3 16 4c be
       -0.34508428 -0.44677994 0.081968196 -0.1993051
0003b0 b2 0b bc bd 80 db 97 be 3c 30 d1 bd 08 5f 72 be
       -0.09181918 -0.29659653 -0.10214278 -0.23669064
0003c0 0b 3c 72 bc e0 e3 20 be 3e 47 74 3e fd f2 8e be
       -0.014784823 -0.15711927 0.23855302 -0.2791976
0003d0 88 80 41 be 79 b1 80 3d d0 b8 e9 3c fc 87 ee 3d
       -0.18896687 0.0628385 0.028530508 0.11647031
0003e0 ab d0 23 3e 8c be 88 3e 3c ad 93 ba 52 5c cb 3d
       0.1599757 0.26707876 -0.0011266838 0.09929718
0003f0 f1 fc 58 be d2 94 82 be 5c 5b de 3d c3 83 ad be
       -0.2119024 -0.25504166 0.10857269 -0.3388959

fc2.bias f4 [64]
000000 f1 1b 62 3d f9 d2 f6 bd 51 c5 d9 bc 00 84 8f bd
       0.05520243 -0.120519586 -0.026583346 -0.07007599
000010 f8 fb 6a 3e 29 fa 88 bd dd 10 71 bd 23 88 25 be
       0.22947681 -0.06688339 -0.058853973 -0.16165213
000020 a0 2b d6 3d fa 47 4b 3d 65 c7 4e be 96 1d 51 3e
       0.104575396 0.04962919 -0.2019325 0.20421442
000030 d9 de 29 be 68 a7 59 be 6b 6e 43 be 70 12 f2 3c
       -0.16588916 -0.21255267 -0.1908509 0.029549807
000040 fd 4b 3d 3d 21 c6 18 3e 5b cd 7b bc 48 a1 b3 3c
       0.046215046 0.1491933 -0.015368785 0.02192749
000050 b7 08 ff bd 19 39 8d 3e bd 7d 93 be 5c 5e 8b 3d
       -0.12452834 0.27582625 -0.28806868 0.06805107
000060 1e 80 a5 bd 2d 1c dc bc 5a 7f 4e 3e 87 fa 07 be
       -0.08081077 -0.026868904 0.20165768 -0.13279162
000070 39 fb cf 3c 12 14 07 3e 31 6f 01 3e 3f 27 6b 3c
       0.025388347 0.1319125 0.12640072 0.014352619
000080 13 dc ac bb b2 7c 10 3e 55 b2 37 3d a0 a9 a7 bd
       -0.0052752583 0.14110067 0.044847805 -0.0818665
000090 08 90 ee 3d b0 b4 fe bd 74 19 52 bd df da fb 3d
       0.116485655 -0.12436807 -0.051293805 0.12297606
0000a0 f0 9e 5d 3e 76 40 58 bd b6 83 ba bc 01 31 c8 3d
       0.21642661 -0.05279585 -0.022767883 0.09774972
0000b0 57 4b 22 3e cc f9 78 be 75 9f 96 be 8e a8 c3 bb
       0.15849052 -0.2431404 -0.2941853 -0.005971021
0000c0 1d b7 a1 bd e7 a4 8d be 54 c4 94 be 0a d8 e7 bd
       -0.07896254 -0.27664873 -0.29056036 -0.11320503
0000d0 a9 dc 05 3e f0 87 2c 3d 89 b4 27 be 3f 15 8e bd
       0.13072456 0.042121828 -0.16377462 -0.06937646
0000e0 12 c9 03 3e a3 cb 00 bf ec d9 97 bd b1 89 55 3d
       0.12869671 -0.50310725 -0.07414612 0.052133266
0000f0 86 d6 9a bd fb 7c bf be 63 7a 14 bd cc 3d 0f be
       -0.07560448 -0.3740004 -0.03624953 -0.13988417

fc3.weight f4 [32, 64]
000000 59 34 b8 bc c0 87 e8 39 44 6d 30 bd 65 a3 5d 3e
       -0.022485899 0.0004435163 -0.043072954 0.21644361
000010 ee 61 5b bd 4e 24 95 3d bc 12 fd 3d d7 b5 30 3e
       -0.05356019 0.07282315 0.12357089 0.17256866
000020 c5 aa 64 be 12 82 b8 3c 17 14 3e be 46 69 10 be
       -0.22330768 0.02252296 -0.18562351 -0.14102659
000030 75 ca 9f 3d 95 03 7d 3d 18 7b a9 ba 6f b7 25 be
       0.078022875 0.061770994 -0.0012930362 -0.16183256
000040 c1 b8 ab be 28 17 04 be 50 77 cb bd 3e 9d e3 bd
       -0.33539394 -0.12899458 -0.099348664 -0.11113976
000050 a0 5b 42 3d 39 0c 4d bd 4a 6d 16 be 87 38 cb bd
       0.04745066 -0.050060485 -0.14690128 -0.09922891
000060 6d 94 99 3e 86 bc 4d 3d 06 1c 10 3e 40 99 bd bd
       0.29996052 0.050228618 0.1407319 -0.09257746
000070 31 9e 8d 3e 3e 9c 96 3d 61 5a 44 be ab 13 36 3c
       0.27659753 0.073540196 -0.19175102 0.011113088
000080 fe 6c 6d bd 1a a4 7a bc 01 e8 2b bd 58 14 aa bd
       -0.05796527 -0.015297914 -0.041969303 -0.083046615
000090 28 38 24 3e a5 75 0c bd f8 f4 2b 3e dd c9 33 be
       0.16037047 -0.034291882 0.16792667 -0.17557473
0000a0 0b 26 38 be a8 c5 e0 bd 31 87 ac bb fe 48 06 be
       -0.17983262 -0.109752 -0.0052651395 -0.13113782
0000b0 a2 80 bf be 6a 4c 42 be d8 81 a5 3e 3a da f8 3c
       -0.37402827 -0.18974462 0.32325625 0.030377496
0000c0 d9 3f 3d 3d bf ea 0a bb 46 17 4b bd 5c ac 66 3c
       0.046203468 -0.0021197048 -0.049582742 0.01407918
0000d0 98 08 a3 bc c9 c9 42 be c7 a8 df bc c0 c0 55 3d
       -0.019901559 -0.19022287 -0.027302159 0.052185774
0000e0 a8 13 95 be f1 24 11 3e 7b 38 58 be f0 3d c7 3b
       -0.2911656 0.14174248 -0.21115296 0.0060803816
0000f0 e6 d4 08 bd dc 09 c7 3b 78 40 00 bd 87 ea 56 3e
       -0.03340616 0.0060741734 -0.031311482 0.20987903
000100 18 c4 ad 3d b0 e6 6d be 06 ba 6b 3d bc c4 1e be
       0.084846675 -0.23232532 0.057550453 -0.15504736
000110 1e e5 fe be ce 7d 15 bd 9d ed 09 be db 2d 73 be
       -0.49784178 -0.03649693 -0.13469549 -0.23747961
000120 3c 3d d3 bb 74 08 2c 3d ca d6 57 be be 75 1c bd
       -0.0064465087 0.04200025 -0.2107803 -0.038198225
000130 90 67 81 be 2f 21 80 be d7 af 04 3e ab 56 2f bf
       -0.25274324 -0.25025317 0.12957703 -0.6849162
000140 96 87 6e 3e 5c c2 37 3c 48 b0 ad be 23 e2 71 bd
       0.2329391 0.0112157725 -0.33923554 -0.05905355
000150 2b 41 92 3d 6b b7 e7 be a2 ba 12 bd 97 4b 45 be
       0.07141336 -0.45257124 -0.03582252 -0.19267116
000160 18 f0 7e 3d c9 3d e9 be a9 0f f4 bd c7 93 a1 3d
       0.06224069 -0.4555495 -0.119170494 0.078895144
000170 83 aa 93 3d 3f 77 f1 be 8f c9 cc be b4 0d ce 3c
       0.07210257 -0.4716129 -0.39997527 0.025153019
000180 ef 11 0c bf 35 fc 01 bf 78 b1 4e bb b7 db 32 bf
       -0.54714864 -0.5077546 -0.0031538885 -0.6986651
000190 ec e9 39 be d8 7b 04 be a5 ea 10 3e 79 b9 90 3e
       -0.1815564 -0.12937868 0.1415201 0.28266504
0001a0 8d 30 4f be 19 b5 eb 3d 2a 57 d7 bd 31 8a 49 3e
       -0.20233364 0.11509151 -0.10514672 0.19681622
0001b0 44 39 21 bf dd 2a eb bd 86 57 7e bd 86 d3 98 be
       -0.62978005 -0.11482785 -0.062095188 -0.2984888
0001c0 aa c8 91 bc d4 4b af 3d d7 c7 f3 bd c8 5e f8 bd
       -0.01779588 0.08559385 -0.11903351 -0.12127453
0001d0 7d a6 d7 3c 0c aa c8 be 6f 09 2c 3d 76 27 d7 bd
       0.026324505 -0.39192235 0.042001184 -0.105055735
0001e0 fa 1a 26 3d b9 c3 32 be 5a da 13 bf 51 e6 e0 3b
       0.04055307 -0.17457475 -0.57755053 0.0068633934
0001f0 fe 3f 6e 3d cb 0b 3c be 89 20 11 be df ab 04 bf
       0.058166496 -0.18363874 -0.14172567 -0.51824754
000200 05 7e 0e 3e 33 9b 5d bc 77 01 f6 3d 6c de a9 bc
       0.1391526 -0.013525772 0.12011998 -0.020735942
000210 3f 3b fe be d1 3d 8f 3d 53 87 cb 3d 37 65 93 be
       -0.49654576 0.069942124 0.099379204 -0.28788158
000220 ae 15 d7 3d ed bd ff 3d 52 27 aa bd 33 f2 01 3e
       0.10502182 0.12487397 -0.08308281 0.12690048
000230 5b 52 8c be 19 93 36 3e de 14 b4 bd db 2a 30 bf
       -0.27406582 0.17829551 -0.087930426 -0.6881539
000240 7b d5 72 3e d1 bb e6 3d 18 6f fb be d6 9b 3f 3e
       0.23714249 0.11266292 -0.49108195 0.1871179
000250 8d 3a 0f 3e 0b 85 b7 be c3 63 aa bd 58 9c 64 be
       0.13987179 -0.3584369 -0.08319809 -0.22325265
000260 df b4 dc 3d f5 60 ff be 7b 56 43 3e 86 d4 d2 3d
       0.10776686 -0.4987866 0.19075958 0.10294442
000270 13 bf 52 3e 7b 1b d6 be 7b 35 0f bf 87 62 f4 3d
       0.20580702 -0.4181784 -0.5594098 0.11932855
000280 6b 41 0d bf 7f 1c 09 bf d6 e3 78 bd 08 ac 31 bf
       -0.55177945 -0.53559107 -0.060764156 -0.69403124
000290 30 8b 37 be b5 8b 59 bc b5 fa 34 3e 8d 87 38 3e
       -0.1792419 -0.013277938 0.17673762 0.18020459
0002a0 1d 88 c5 bc 3d 73 be 3d 1f ad 86 3d 70 9d 36 3e
       -0.024112755 0.09299324 0.06575989 0.17833495
0002b0 40 f2 0a bf b0 80 b2 bd 42 0b d9 3d 33 e1 b3 be
       -0.54275894 -0.087159514 0.105978504 -0.3513275
0002c0 74 fc cf 3d 71 5b 3d 3e 77 24 c6 bb 1b 92 1a 3e
       0.101555735 0.18491913 -0.0060468274 0.15094797
0002d0 a6 5b 62 bd ff 8e d7 be ee 24 00 3e 29 ff e6 3c
       -0.055263184 -0.42101285 0.12514088 0.028197842
0002e0 9e a1 e2 3c aa 9b ac 3d 09 d6 27 bf 3d 89 63 3d
       0.027664956 0.08428128 -0.65560967 0.055550802
0002f0 e9 6f b0 bc 3d 55 0a 3d 48 72 bd bb a0 20 67 be
       -0.021537738 0.033772696 -0.0057814457 -0.22571039
000300 ab 0e 11 be 61 5d d7 3d 34 5e af bd 15 9e 30 bd
       -0.14165752 0.105158575 -0.0856289 -0.04311951
000310 84 05 21 3e e8 45 26 be 0b e2 18 3e 82 58 38 3e
       0.1572476 -0.16237605 0.14929979 0.18002513
000320 e0 bf 02 be a6 57 62 be 56 1b 08 3e 8a cd 4b be
       -0.12768507 -0.22103748 0.13291678 -0.19902626
000330 7f ae 9e bc 48 47 e7 be 53 df 88 3b b3 ac 27 3e
       -0.019370316 -0.4517157 0.004177013 0.16374473
000340 03 cc 61 be 3a 32 e3 bd c4 70 92 3d 87 74 bc bd
       -0.2205048 -0.11093564 0.071504146 -0.09201913
000350 61 3c 10 be 47 4b 02 3e 99 ad 35 be 8d 15 15 3e
       -0.14085533 0.12724029 -0.17742004 0.14559002
000360 b0 d1 ba bd d7 86 4a 3d 04 1d 70 bd e3 a8 47 be
       -0.09122026 0.049445 -0.05862142 -0.19498019
000370 84 e3 13 be 53 01 ad 3d 0f fc 0b 3e cd 47 90 3d
       -0.14442259 0.08447518 0.13670371 0.07044945
000380 be fa d4 bb ac dd 0e 3e 16 b6 67 bd 3f 7d fb 3c
       -0.0064996174 0.13951749 -0.056570135 0.03069937
000390 81 ac 46 3e 97 f9 42 be f0 d3 d1 3d 02 d6 58 be
       0.19401743 -0.19040523 0.10245502 -0.21175388
0003a0 b7 92 89 3d 28 18 1c bd 5a 16 b0 be 85 ab dd bc
       0.06717437 -0.038108975 -0.34392053 -0.027059326
0003b0 f2 b6 92 3d 4a 23 36 3e 6b 47 69 3d be b3 1c bb
       0.071638 0.17786899 0.056952875 -0.0023910846
0003c0 92 1f 64 be 7a 4d 5e be 19 ac 9d 3d 7a 64 2c be
       -0.22277668 -0.21709242 0.07698841 -0.16835204
0003d0 72 87 93 be 66 9f d2 be 97 af b3 be be c7 94 be
       -0.28814274 -0.41137236 -0.35094902 -0.2905864
0003e0 fe 41 a7 be 6b 98 86 be 9c 32 c8 3d c3 0c 76 3e
       -0.32667536 -0.2628816 0.09775278 0.24028306
0003f0 19 65 49 bd 6d 49 55 be c6 0d f1 3d 4d 57 4f 3e
       -0.04916868 -0.20828791 0.11770205 0.20248146

fc3.bias f4 [32]
000000 f6 93 22 be 6c 35 28 3e df bb 32 3e 2f 64 8f be
       -0.15876755 0.16426629 0.1745448 -0.28006122
000010 36 d6 9f 3e be e7 85 3e dc 38 2b 3d 10 28 e7 bd
       0.31218117 0.26153368 0.041802272 -0.11286938
000020 ab 7a 29 3e 13 73 e0 bd 42 85 6b bd 18 e8 61 be
       0.165507 -0.10959449 -0.05750013 -0.22061193
000030 ac bb 52 3e 2c e0 c8 bd 45 8a 5b 3e cc d6 37 3d
       0.20579404 -0.098083824 0.21439464 0.04488258
000040 5a f6 ee bd c5 08 09 be f4 f4 14 3e ff fe 8a 3e
       -0.116680816 -0.13382252 0.14546567 0.27147672
000050 aa 6f c5 3e 22 db 78 3e a4 89 9d bc 3c d6 cf 3e
       0.38561755 0.24302343 -0.019230671 0.40593135
000060 d5 bc 72 3e 89 9f a2 3e 44 f2 d7 bd ab 04 ae 3e
       0.23704846 0.3176234 -0.105442554 0.33987936
000070 3d 67 38 be 1c f0 8a be 0b 80 47 be c4 cf fb be
       -0.18008132 -0.27136314 -0.19482438 -0.4918195

fc4.weight f4 [1, 32]
000000 f4 96 d7 3d 12 34 ac 3d 6c 7f c0 3d 5f 3c 0c 3e
       0.10526839 0.08408369 0.09399304 0.13694905
000010 1a 2f 29 3e 0c 98 9a 3d 3f 87 03 be b5 d5 e9 3d
       0.16521874 0.07548532 -0.12844561 0.114177145
000020 ae 0e 7a 3d d6 ca 28 3d 64 1a 2b 3d e6 3e 67 bd
       0.061049156 0.041209064 0.041773215 -0.05645647
000030 71 1b b0 3d 91 d7 0b 3e a9 a4 90 3d 03 bb b7 bd
       0.08598984 0.13656451 0.070626564 -0.089712165
000040 64 b3 97 3c 89 80 42 bc a3 61 b3 bd e3 c8 fd bd
       0.018518157 -0.0118714655 -0.08758857 -0.12391832
000050 6a 94 1a be d5 3f 18 be 9b 35 f3 3d 49 15 3a be
       -0.15095678 -0.148681 0.11875459 -0.18172182
000060 df 7d 34 be e3 e7 64 be 66 ba bf bd 77 82 0c be
       -0.17626141 -0.22354083 -0.093617246 -0.13721643
000070 3c 5f dc 3d da 4e 83 3d 71 da 8b 3b 74 ad 92 3e
       0.10760352 0.06411524 0.0042679836 0.2864796
