bootstrapping_connect_four_heuristic_five.pth (torch, 58396 bytes, 7 tensors)

fc1.weight f4 [128, 25]
0.041419648 0.019196257 0.009647319 0.269729 0.13158265 -0.18969455 -0.99392194 -1.1351905
-0.7678658 -0.18649834 0.021293828 0.38710168 0.5650924 0.06318713 0.026164437 0.10385668
0.10585977 -0.050038144 0.07980616 -0.0063658287 -0.096282415 -0.03591904 0.048806842 -0.027817933
-0.01928152 0.24490623 -0.06220679 -0.98607606 0.18727846 0.38494113 -0.14208846 -0.50613624
-0.7154491 -0.32574445 0.07757811 0.17225681 -0.24826306 0.033807535 -0.18710126 0.12146446
-0.0030997936 -0.048838034 0.22326699 0.05794319 0.094446756 0.110211834 0.11184455 0.0508817
0.040965058 0.07583868 -0.15296 0.034560822 -0.7689252 -0.324893 0.05965829 -0.08550417
0.34785905 -0.067643456 0.40020528 0.4758504 -0.12659992 -0.053431075 -1.4955924 -0.10663839
-0.005045665 0.37279692 0.054496486 -0.5506472 -0.12664449 0.24468835 0.035575386 -0.093003236
-0.14787717 -0.0668215 -0.23008765 -0.6851424 -0.2324327 0.34870043 -0.0010403768 -0.641349
0.038535256 -0.27072656 0.26734442 -1.1416961 -0.33809406 -0.18958507 -0.49517652 -0.07869543
-0.70797336 -0.15713096 0.24273996 -0.29096642 0.1269105 -0.36854333 0.28090212 0.1327072
-0.12269927 0.078571886 -0.20401178 0.07358667 -0.049781498 0.6200031 -0.044526156 -0.091799036
-0.009424336 -0.062393706 0.32566664 0.36665174 -0.85713995 -0.09027377 -0.1056614 -0.005373656
-0.9197248 0.42572042 -0.40482837 -0.26177445 0.1239383 -0.045595814 -0.00024660645 0.54935104
0.12105255 0.050793596 0.18533821 0.08780107 -0.087378085 -0.16776131 -0.0551515 -0.2137856
-0.13758896 -0.15806808 0.017162556 -0.44034636 0.4349974 0.11890871 0.04942646 -0.0047214353
0.19708852 0.82853174 0.25237694 -0.034749325 -0.021765599 -0.057837944 0.06830364 -0.3929377
0.17933027 -0.109892234 -0.21374063 -0.05220756 0.07938187 -0.14843869 0.21518569 0.2648004
0.106809825 0.49861526 -0.2813056 0.27588856 -0.56687915 -0.5800873 -0.9116646 0.05166222
-0.10847217 0.009534725 0.25607938 0.0793423 -0.20086055 -0.49791208 -0.24311595 -0.36150214
-0.0026584158 -0.63387716 -0.15327275 -0.022858672 0.111958526 0.02236135 -0.2739357 -0.06574283
0.16712666 0.03323542 -0.92224514 -0.2709673 0.16574582 0.19216253 -0.8863027 0.106287986
-0.14620215 0.2356406 -0.8212132 0.48647186 0.010824922 -0.05122752 -0.32282928 0.57281834
0.10700319 -0.13941562 -0.017059913 -1.478571 0.11982772 0.03434136 -0.0307896 -0.06850209
-0.026363011 -2.003651 0.09345557 0.35808575 0.07307217 0.050588705 -0.577167 -0.07975681
-0.86618936 0.018233025 -0.112164766 -0.23985529 0.066200584 0.28904828 -0.023602065 -0.029999336
-0.25361723 0.04313385 -0.16654472 -0.035179358 -0.05676178 0.09392415 -0.2550632 0.10248792
0.0055449908 0.15562963 0.25556517 0.11726737 -1.9059212 0.030351298 0.14938399 -0.6241622
-0.60510814 -0.90125555 0.22515897 0.06899726 0.48264816 0.18515788 -0.33917576 -0.036913898
0.22128287 -0.17318825 0.011936512 -0.08446562 0.21948816 0.39812595 0.11119706 -0.085160226
-0.1639648 -0.15095885 -0.29421222 -0.47060776 -0.548192 0.45541182 0.008076917 -0.0068549733
00000000: a6a7 293d 7841 9d3c ca0f 1e3c eb19 8a3e
00000010: 9abd 063e 4a3f 42be ab71 7ebf ec4d 91bf
00000020: da92 44bf 6cf9 3ebe 6570 ae3c 3132 c63e
00000030: e5a9 103f 4168 813d cd56 d63c d0b2 d43d
00000040: 02cd d83d ccf4 4cbd 6971 a33d 7198 d0bb
00000050: b72f c5bd d81f 13bd afe9 473d 6fe2 e3bc
00000060: 47f4 9dbc b3c8 7a3e 8ccc 7ebd 7b6f 7cbf
00000070: edc5 3f3e 0117 c53e a37f 11be 2592 01bf
00000080: ac27 37bf fac7 a6be 46e1 9e3d 1764 303e
00000090: ac38 7ebe c579 0a3d 7997 3fbe 5cc2 f83d
000000a0: e825 4bbb 640a 48bd 1aa0 643e d755 6d3d
000000b0: 4d6d c13d beb6 e13d c10e e53d 5469 503d
000000c0: faca 273d 4f51 9b3d 8ca1 1cbe a68f 0d3d
000000d0: 48d8 44bf 6058 a6be 405c 743d cf1c afbd
000000e0: 951a b23e a788 8abd b5e7 cc3e aaa2 f33e
000000f0: 69a3 01be 8bda 5abd 926f bfbf 3a65 dabd
00000100: 1b56 a5bb 3ddf be3e b537 5f3d 37f7 0cbf
00000110: 18af 01be 958f 7a3e 7fb7 113d 7b78 bebd
00000120: 1d6d 17be b6d9 88bd 199c 6bbe 7e65 2fbf
00000130: d602 6ebe dd88 b23e 415d 88ba 732f 24bf
00000140: 25d7 1d3d ac9c 8abe 5ee1 883e 1923 92bf
00000150: aa1a adbe 9722 42be c787 fdbe 122b a1bd
00000160: be3d 35bf f0e6 20be d390 783e 8df9 94be
00000170: d3f4 013e b6b1 bcbe 67d2 8f3e 65e4 073e
00000180: c149 fbbd 4cea a03d 77e8 50be 9cb4 963d
00000190: afe7 4bbd 86b8 1e3f 0f61 36bd 2201 bcbd
000001a0: 8868 1abc 8b90 7fbd c7bd a63e c7b9 bb3e
000001b0: 866d 5bbf 74e1 b8bd 0165 d8bd 7e15 b0bb
000001c0: 1673 6bbf 07f8 d93e aa45 cfbe 4d07 86be
000001d0: 5dd3 fd3d adc2 3abd f54a 81b9 45a2 0c3f
000001e0: 66ea f73d f20c 503d 4dc9 3d3e 0cd1 b33d
000001f0: 48f3 b2bd 9fc9 2bbe 8ae6 61bd 9dea 5abe
00000200: 1fe4 0cbe 99dc 21be 7d98 8c3c 1475 e1be
00000210: fbb7 de3e 6986 f33d 6673 4a3d 45b6 9abb
00000220: 93d1 493e a81a 543f 8d37 813e 4f55 0ebd
00000230: c54d b2bc 7be7 6cbd c7e2 8b3d 212f c9be
00000240: 5ba2 373e 2e0f e1bd d3de 5abe 98d7 55bd
00000250: f692 a23d 5000 18be a359 5c3e eb93 873e
00000260: 1cbf da3d 804a ff3e 4a07 90be 4441 8d3e
00000270: fe1e 11bf 9a80 14bf da62 69bf c49b 533d
00000280: a826 debd 8937 1c3c d61c 833e 377e a23d
00000290: 63ae 4dbe 55ee febe 63f3 78be cf16 b9be
000002a0: d138 2ebb c645 22bf 88f3 1cbe 1c42 bbbc
000002b0: 834a e53d 262f b73c 4d41 8cbe 2da4 86bd
000002c0: 4023 2b3e dd21 083d 4218 6cbf 3abc 8abe
000002d0: 46b9 293e 41c6 443e bce4 62bf 84ad d93d
000002e0: 04b6 15be c54b 713e 073b 52bf d712 f93e
000002f0: 035b 313c f3d3 51bd e149 a5be 39a4 123f
00000300: 7d24 db3d f8c2 0ebe 3bc1 8bbc d141 bdbf
00000310: 3c68 f53d 87a9 0c3d 793a fcbc d34a 8cbd
00000320: 3ef7 d7bc d13b 00c0 a265 bf3d 0457 b73e
00000330: dda6 953d 1a36 4f3d 37c1 13bf 8a57 a3bd
00000340: 96be 5dbf 6d5d 953c a4b6 e5bd a09c 75be
00000350: 2c94 873d 23fe 933e 1e59 c1bc 2bc1 f5bc
00000360: 1eda 81be 1fad 303d b38a 2abe 3b18 10bd
00000370: 0a7f 68bd 4e5b c03d a597 82be 30e5 d13d
00000380: c1b2 b53b 605d 1f3e 70d9 823e e029 f03d
00000390: 3af5 f3bf 49a3 f83c 1ef8 183e 18c9 1fbf
000003a0: 5ee8 1abf afb8 66bf 1390 663e 6f4e 8d3d
000003b0: a91d f73e 079a 3d3e 72a8 adbe 0733 17bd
000003c0: fa97 623e 4358 31be 5c91 433c 50fc acbd
000003d0: 81c1 603e 2ad7 cb3e 49bb e33d 7c68 aebd
000003e0: 63e6 27be f594 1abe fca2 96be 80f3 f0be
000003f0: 5056 0cbf bd2b e93e 0c55 043c af9f e0bb

fc1.bias f4 [128]
0.61212385 0.7920779 -0.47945955 -0.12667742 -0.9214952 -1.1688035 -0.4730343 0.25301877
0.59862757 0.019498909 0.844034 -0.94784176 -1.005034 -0.796141 -0.7506521 0.17477237
-0.4058845 -0.6910456 -0.90687996 0.4067975 0.3046873 0.3739442 -1.0012481 -0.7773016
-0.53033626 -0.6244434 -0.98011607 -1.0992101 -0.12909217 -1.1412737 0.23943447 1.0359119
-0.86137426 -0.93724775 0.080126874 0.2909493 -1.2827847 0.25754133 -0.26095518 -0.97449243
-1.1548404 0.6562277 -1.1052097 0.17065902 -1.0087619 -0.055920735 0.4433003 -0.6395277
-0.507502 -1.0478779 -0.1848348 -0.06122499 -0.9414705 -0.77513605 -1.1222402 0.31883794
0.87419724 -0.66280216 -0.93977064 -0.35318747 0.4162012 -1.1002337 -0.97139907 -0.07080216
-0.13640936 -0.39640296 -0.75908506 -0.73506576 -0.8857083 0.100925185 -0.9275821 -0.6355035
-0.1364823 0.6065775 -1.1214924 -0.47163472 -0.9752564 -0.5001786 0.26891887 0.020170767
-0.85059106 -0.1872534 -0.7499904 -1.0697095 -0.8824624 -0.10954926 0.30005577 0.79823923
-0.91560787 0.53316665 0.11704762 0.065483 -0.66805476 0.061393686 -0.9210805 -0.20851676
-0.8903127 -0.5491056 -0.07877826 -1.1823834 -0.36419705 -1.2212445 -0.42962003 0.4452582
-0.8760562 0.72395974 -0.14342353 0.5128776 0.66414595 -0.97720784 -0.7724081 0.29395592
0.12161668 0.27127036 0.4016987 0.17327392 -0.106346086 0.05592699 0.26139337 -0.32639423
-0.3276942 -0.41562936 -1.1958816 -0.87254685 -0.8477001 -1.101897 -0.15936533 -0.34602883
00000000: 26b4 1c3f 9ec5 4a3f b97b f5be bab7 01be
00000010: 1ce7 6bbf 5a9b 95bf 8d31 f2be ad8b 813e
00000020: a83f 193f 2dbc 9f3c 9d12 583f c2a5 72bf
00000030: f4a4 80bf e6cf 4bbf bc2a 40bf 87f7 323e
00000040: 18d0 cfbe 5de8 30bf 4929 68bf c347 d03e
00000050: f9ff 9b3e 9d75 bf3e e628 80bf 3dfd 46bf
00000060: 1ec4 07bf 86db 1fbf e3e8 7abf ebb2 8cbf
00000070: bd30 04be 4215 92bf 4f2e 753e c398 843f
00000080: 0683 5cbf 78ef 6fbf 8f19 a43d 4ff7 943e
00000090: 4a32 a4bf 75dc 833e eb9b 85be 5678 79bf
000000a0: cfd1 93bf 8afe 273f 8377 8dbf 3dc1 2e3e
000000b0: 1c1f 81bf 240d 65bd 42f8 e23e 16b8 23bf
000000c0: a7eb 01bf dd20 86bf 5545 3dbe 0ec7 7abd
000000d0: 3604 71bf 516f 46bf 91a5 8fbf ba3e a33e
000000e0: 64cb 5f3f 67ad 29bf cf94 70bf fdd4 b4be
000000f0: 5318 d53e 75d4 8cbf 9cad 78bf b900 91bd
00000100: e5ae 0bbe 54f5 cabe 6653 42bf 452d 3cbf
00000110: c7bd 62bf ddb1 ce3d 0576 6dbf 5bb0 22bf
00000120: 04c2 0bbe aa48 1b3f 108d 8fbf 1b7a f1be
00000130: 67aa 79bf b40b 00bf bcaf 893e 2a3d a53c
00000140: 56c0 59bf 5bbf 3fbe 5fff 3fbf 3eec 88bf
00000150: 0ee9 61bf 5d5b e0bd e9a0 993e 6859 4c3f
00000160: 4765 6abf 9c7d 083f aab6 ef3d f31b 863d
00000170: a305 2bbf f277 7b3d efcb 6bbf 6b85 55be
00000180: 88eb 63bf 2f92 0cbf 7f56 a1bd 5758 97bf
00000190: 0978 babe bd51 9cbf 28f7 dbbe e2f8 e33e
000001a0: 3845 60bf 6d55 393f 9edd 12be f24b 033f
000001b0: 7805 2a3f 4b2a 7abf 8abc 45bf 6481 963e
000001c0: 2a12 f93d f3e3 8a3e 74ab cd3e b86e 313e
000001d0: facb d9bd b313 653d 5ad5 853e 251d a7be
000001e0: 89c7 a7be 5fcd d4be a612 99bf 3b5f 5fbf
000001f0: e002 59bf f60a 8dbf aa30 23be b12a b1be

fc2.weight f4 [64, 128]
-0.19094644 0.023226116 -0.16878133 -0.049969066 -0.19318558 -0.16794316 0.08710825 -0.10648774
-0.010304759 -0.097818114 -0.105121836 -0.067830496 0.020671135 -0.055153843 -0.10385806 -0.06333057
0.06263318 0.048820492 -0.070076816 -0.10397072 -0.11355125 -0.03879837 -0.08638653 0.0019632182
-0.052983493 -0.045549266 -0.06863931 0.048396036 0.035846278 -0.14344381 -0.022763627 -0.053680584
-0.046731174 -0.028053548 -0.07075284 0.061125834 -0.06586358 -0.030713834 -0.13069431 -0.14824712
-0.019207897 -0.018162427 -0.07788195 -0.076846406 -0.06393863 -0.0593154 0.02970906 -0.08247076
0.0048267106 0.03144466 0.09213943 -0.08124094 -0.14919847 -0.010508828 -0.16466676 -0.006367336
-0.02521052 -0.057851348 -0.03300934 -0.13950033 -0.068695344 0.06043038 -0.03485854 -0.07209865
-0.09290791 -0.12643778 -0.047724396 -0.05814303 -0.05396585 0.14024265 -0.0369183 -0.04953413
-0.10201656 -0.05010809 -0.06789913 0.029845424 -0.09616532 -0.13898957 -0.053988084 0.0007432692
-0.045457907 0.073178455 -0.10765792 -0.049090926 0.05943162 -0.08247537 -0.046313625 -0.10314624
0.054502506 -0.056042895 -0.044454478 -0.03623103 0.027942786 -0.12602964 -0.1961114 0.05585394
-0.12013174 0.048885345 -0.0933824 -0.01768306 -0.013292098 -0.061571598 0.043084294 0.016155241
0.022921704 -0.15831351 0.0047967965 -0.061574783 -0.016594298 -0.18251653 -0.036487848 0.0112996735
0.07125575 -0.13781989 -0.054768633 -0.043211248 -0.057567798 -0.1586638 -0.107123576 -0.1364767
-0.02784153 -0.015612671 -0.08770325 -0.0122652 -0.11505836 -0.032161865 -0.14759009 -0.08917333
-0.08081276 0.17049226 -0.74099684 0.08319199 0.27587014 -0.5161539 -0.24863319 -0.23365308
-0.020084243 -0.03970491 -0.03526395 0.23031676 -0.081921935 -0.25668347 0.10332523 -0.11118235
-0.3608509 -0.48432902 -0.3234187 0.16486432 0.06225707 0.06184256 -0.85273635 -0.22001202
0.10901797 -0.12758224 -0.35694712 0.27432266 -0.16650723 -0.3287227 -0.33566982 -0.09253619
-0.140763 0.02526185 0.29388398 -0.21655892 -0.7573627 0.05265612 -0.31224284 -1.0523435
-0.8834626 -0.18771453 -0.06367959 -0.622622 -0.7093894 -0.9657082 0.41599196 -1.2037451
-0.48931193 -0.32966265 -0.34863245 -0.8403673 -0.5087023 0.050971273 -1.3760276 -0.19133821
0.08929808 -0.51574296 0.14169036 -0.38295597 0.09545588 -1.4421483 -0.71391404 -0.733396
-0.10253676 -0.26661876 -0.091992036 -0.37660906 0.035490572 0.2227781 -0.2950299 -0.5380941
-0.7075474 -0.16376756 -0.23957373 -0.62660635 -0.7574904 -0.47240028 -0.16311774 -0.35053834
-0.5692587 -0.5775662 -0.5644931 -0.2461454 -0.55466676 -0.09291504 0.22791478 -0.295642
-0.4900038 -0.0347452 -0.25757122 -0.11598291 -0.16132654 0.3220493 -0.686555 0.07216514
-0.5962446 -0.6991005 -0.22114067 0.21911031 -0.053997785 0.33642688 -0.59675527 0.15049239
-0.25873 0.026969494 0.08746168 -0.045921247 -0.15683593 -0.09672577 0.0051146355 0.09353469
0.37622923 0.08478525 0.20584539 -0.042081542 -0.18574859 0.35413516 0.02714916 -0.37776852
-0.383964 0.15537177 -0.3092585 -0.6642116 -0.19625115 -1.1302959 -0.4421348 -0.29209843
00000000: 7787 43be b244 be3c 03d5 2cbe 5dac 4cbd
00000010: 71d2 45be 4bf9 2bbe cf65 b23d 3f16 dabd
00000020: 4bd5 28bc dd54 c8bd 1e4a d7bd b7ea 8abd
00000030: 8356 a93c ffe8 61bd 89b3 d4bd 75b3 81bd
00000040: d345 803d fff7 473d 6f84 8fbd 9aee d4bd
00000050: 8f8d e8bd 0aeb 1ebd 6ceb b0bd 56a9 003b
00000060: 3805 59bd de91 3abd c492 8cbd ec3a 463d
00000070: 8cd3 123d efe2 12be c97a babc 2ce0 5bbd
00000080: 3069 3fbd 8ed0 e5bc dde6 90bd 155f 7a3d
00000090: 7ce3 86bd 949b fbbc bbd4 05be 18ce 17be
000000a0: e159 9dbc 5fc9 94bc 9280 9fbd a661 9dbd
000000b0: 42f2 82bd b4f4 72bd 6a60 f33c 6ee6 a8bd
000000c0: 6229 9e3b 1ecc 003d 99b3 bc3d a661 a6bd
000000d0: 7cc7 18be 382d 2cbc 679e 28be 16a5 d0bb
000000e0: 4b86 cebc 89f5 6cbd cd34 07bd 2dd9 0ebe
000000f0: 25b0 8cbd d985 773d d4c7 0ebd 75a8 93bd
00000100: 8146 bebd e878 01be a87a 43bd 6327 6ebd
00000110: 4c0b 5dbd c59b 0f3e a537 17bd 4de4 4abd
00000120: 0fee d0bd 243e 4dbd b30e 8bbd 647e f43c
00000130: 53f2 c4bd 4853 0ebe 9c22 5dbd f4d7 423a
00000140: 1232 3abd 96de 953d c17b dcbd 9113 49bd
00000150: 926e 733d d9e8 a8bd 5bb3 3dbd 563e d3bd
00000160: 053e 5f3d 3c8d 65bd e615 36bd fd66 14bd
00000170: 45e8 e43c ea0d 01be 6dd1 48be 1ac7 643d
00000180: a107 f6bd 003c 483d 463f bfbd 11dc 90bc
00000190: 1ac7 59bc 8032 7cbd 2879 303d ff57 843c
000001a0: 4cc6 bb3c f01c 22be 722e 9d3b d735 7cbd
000001b0: c4f0 87bc 9de5 3abe 4874 15bd 4422 393c
000001c0: 89ee 913d a820 0dbe 1355 60bd 47fe 30bd
000001d0: 36cc 6bbd c378 22be 9b63 dbbd 8cc0 0bbe
000001e0: ec13 e4bc 4acc 7fbc c39d b3bd faf3 48bc
000001f0: b8a3 ebbd 29bc 03bd db21 17be 82a0 b6bd
00000200: 2981 a5bd 8695 2e3e f8b1 3dbf 9060 aa3d
00000210: da3e 8d3e a922 04bf b399 7ebe c142 6fbe
00000220: b687 a4bc 9ea1 22bd ee70 10bd 28d8 6b3e
00000230: b0c6 a7bd 046c 83be 2e9c d33d 92b3 e3bd
00000240: 73c1 b8be f9f9 f7be 2397 a5be 31d2 283e
00000250: 4501 7f3d a04e 7d3d ee4c 5abf d54a 61be
00000260: d044 df3d eba4 02be c6c1 b6be 0574 8c3e
00000270: df80 2abe 574e a8be eadc abbe 9d83 bdbd
00000280: 2d24 10be f0f1 ce3c f677 963e 9fc1 5dbe
00000290: 86e2 41bf f2ad 573d 4bde 9fbe 31b3 86bf
000002a0: 9b2a 62bf 3d38 40be 726a 82bd 2864 1fbf
000002b0: 8b9a 35bf a738 77bf e6fc d43e 5214 9abf
000002c0: 1887 fabe 8bc9 a8be f47f b2be 5022 57bf
000002d0: 503a 02bf 41c7 503d ac21 b0bf 2aee 43be
000002e0: e9e1 b63d bb07 04bf 4717 113e ce12 c4be
000002f0: 5f7e c33d 5198 b8bf 12c3 36bf d7bf 3bbf
00000300: cbfe d1bd 4182 88be 5266 bcbd e7d2 c0be
00000310: 905e 113d f11f 643e 290e 97be 89c0 09bf
00000320: d421 35bf afb2 27be d152 75be 4669 20bf
00000330: e4ea 41bf 73de f1be 5608 27be c379 b3be
00000340: f0ba 11bf 61db 13bf 9f82 10bf 8a0d 7cbe
00000350: a4fe 0dbf 3e4a bebd 7e62 693e 635e 97be
00000360: c7e1 fabe fc50 0ebd 60e0 83be 7388 edbd
00000370: c932 25be a5e3 a43e 12c2 2fbf 51cb 933d
00000380: 7ca3 18bf 40f8 32bf b372 62be 745e 603e
00000390: c82c 5dbd 2540 ac3e f4c4 18bf ad1a 1a3e
000003a0: 4278 84be 21ef dc3c 1c1f b33d eb17 3cbd
000003b0: 9999 20be 2918 c6bd ac98 a73b 1e8f bf3d
000003c0: 1ea1 c03e e4a3 ad3d 22c9 523e b25d 2cbd
000003d0: e134 3ebe 3451 b53e ea67 de3c e06a c1be
000003e0: ee96 c4be c719 1f3e 2157 9ebe c509 2abf
000003f0: 10f6 48be 89ad 90bf 7e5f e2be ed8d 95be

fc2.bias f4 [64]
-0.25279385 0.07556331 -0.5478631 -0.3691085 0.28563705 -0.39466396 -0.53858274 -0.35029075
-0.24289669 -1.1270233 -0.83535093 -0.02894536 -0.8818476 0.1298331 -0.16744678 -0.48410004
-0.007399189 -0.2954032 0.310197 0.34878492 0.070756204 -0.46469364 -0.40761584 -0.09643379
-0.3174531 -0.22463861 -0.5899597 -0.37808943 -0.2895387 -0.48378766 -0.5751988 0.50741416
-0.40648538 -0.040919833 -0.18939696 -0.97538984 0.6058913 0.047998782 -0.4658355 0.1618591
0.43604547 -0.40144303 0.5039385 -0.32414675 -0.62349653 0.38768324 0.5330562 -0.4373707
-0.42741394 -0.063481115 0.5931749 0.42959213 0.18475741 -0.29209182 -0.43490788 -0.059225418
-0.09163797 -0.9295875 -0.6723302 0.26576197 -0.54986924 -0.31908315 0.47551274 -0.69121546
00000000: 326e 81be f0c0 9a3d c240 0cbf cafb bcbe
00000010: 053f 923e 6511 cabe 8fe0 09bf 4f59 b3be
00000020: e9b9 78be 4d42 90bf 8fd9 55bf d21e edbc
00000030: c4c0 61bf f8f2 043e 2b77 2bbe f6db f7be
00000040: e574 f2bb 173f 97be 24d2 9e3e f093 b23e
00000050: a1e8 903d 53ec edbe 06b3 d0be 147f c5bd
00000060: 3689 a2be aa07 66be 9907 17bf f094 c1be
00000070: 6b3e 94be 04b3 f7be 3b40 13bf e5e5 013f
00000080: da1e d0be 8e9b 27bd 47f1 41be 26b3 79bf
00000090: b11b 1b3f 5f9a 443d fe81 eebe 64be 253e
000000a0: 5a41 df3e f189 cdbe 1d02 013f 90f6 a5be
000000b0: 789d 1fbf 6b7e c63e 5f76 083f 0def dfbe
000000c0: 00d6 dabe 6302 82bd 4fda 173f 80f3 db3e
000000d0: 0c31 3d3e 0f8d 95be 3fac debe 5a96 72bd
000000e0: b0ac bbbd 72f9 6dbf d51d 2cbf f411 883e
000000f0: 3bc4 0cbf de5e a3be 6876 f33e 7ff3 30bf

fc3.weight f4 [32, 64]
-0.071575455 -0.5001492 0.008027904 0.29355827 -0.18782409 -0.50044376 -0.06836145 -0.3268826
-0.041203 0.09716149 -0.25373942 -0.68459 -0.2964917 -0.2349487 0.0069409017 0.022205366
-0.5018799 0.08788471 -0.68081516 -0.2581012 -0.19547974 -0.28074342 0.0648222 -0.72631973
0.18511027 -0.54687166 0.19987991 -0.6201123 -0.34683323 -0.31383824 -0.6808622 -0.5694721
-0.35050783 0.18106066 0.16987734 -0.31778705 -0.010578805 -0.23806942 0.2830819 -0.6287072
-0.10929159 -0.07242274 -0.29160348 -0.18098791 -0.16064386 -0.4192371 -0.14296155 0.06041128
0.019849477 0.14198095 -0.2902872 -0.72448564 0.03854717 -0.07083293 -0.73567474 0.02850336
-0.64561903 -0.12114447 0.19926962 -0.39626196 0.2424332 0.4663597 -0.42872736 -0.018697942
-0.110768855 0.13920586 0.03880585 -0.0013611548 -0.12624371 0.024946278 -0.057869095 -0.023923956
-0.11421136 -0.019952899 0.10779916 -0.6002075 -0.28887472 -0.17015429 0.5329496 -0.08902929
0.27030945 -0.33975583 -0.35079032 -0.60890126 -0.21212468 -0.07849051 0.119784534 -0.44715962
-0.015489435 -0.16952242 -0.050379377 -0.12476077 -0.066552274 -0.19266516 -0.18990313 0.039926343
0.19509849 -0.09498653 0.06551753 0.021041906 -0.43908635 0.06902186 -0.021020222 0.088949256
-0.13637859 0.0036003652 -0.18119466 0.49513483 0.004891619 -0.31967574 -0.30889606 0.10481684
0.116205364 -0.5311801 -0.123096146 -0.045305982 -0.10070063 0.6067953 -0.2532862 -0.8622508
-0.0506604 -0.011630554 -0.13496666 -0.04166622 -0.07491585 -0.030195575 -0.10821941 0.054833658
-0.102738105 -0.07930207 -0.21155271 -0.080318175 -0.3650086 -0.19037862 -0.22313687 0.09424065
0.20272821 -0.35734093 -0.26915884 0.05934228 0.22332872 -0.026429204 -0.3297857 0.30404595
0.0817506 0.1938648 -0.33063033 -0.21090429 -0.087776005 -0.56562275 -0.14804332 -0.5558837
-0.17947531 -0.26218957 -0.02207146 -0.066106625 0.2184392 -0.1370275 -0.3456786 -0.080704875
0.2282683 0.07430266 0.040717628 -0.02705904 0.2088849 -0.36453003 0.09280675 -0.082002714
-0.1720345 -0.04582172 -0.26076216 -0.6203584 -0.11194222 -0.10005159 -0.1971983 0.11050625
-0.3290269 -0.18098295 -0.38828677 -0.09006777 -0.28633815 0.019280812 0.07049491 -0.20454474
-0.3753178 -0.17104153 0.10230691 0.13123383 0.09591229 0.12204664 -0.24754795 0.2690332
-0.08285123 0.07030993 0.076698326 -0.19531357 -0.09027927 0.038744647 0.09262406 0.21289147
-0.2432163 -0.31718254 -0.12909524 -0.06567819 -0.2458024 -0.15230963 0.11586807 -0.09836203
0.062439173 0.06050181 -0.61326766 -0.45147857 -0.42619136 -0.17269874 -0.25263882 0.011682261
-0.0058972375 -0.34941792 0.20392509 -0.120654464 -0.27405405 -0.005183506 -0.053070933 -0.53256017
-0.16292927 -0.4993011 -0.3078408 0.3889376 -0.39643338 -0.05700498 -0.097002484 -0.41138035
-0.13528258 0.025749061 -0.24451435 -0.14126211 -0.06057157 -0.13862999 -0.4143429 0.16863851
0.08849346 0.040272575 -0.37025532 -0.08105715 -0.58389306 -0.21162847 -0.17973328 -0.27678734
0.26243854 0.04422183 0.08279337 -0.27956596 0.3058442 0.5115294 -0.638039 0.0065107225
00000000: 2796 92bd c709 00bf 7887 033c 454d 963e
00000010: f554 40be 151d 00bf 1701 8cbd 285d a7be
00000020: 7ac4 28bd 9afc c63d 22ea 81be 4a41 2fbf
00000030: c3cd 97be 6496 70be 8170 e33b 07e8 b53c
00000040: 337b 00bf e6fc b33d e749 2ebf d725 84be
00000050: d72b 48be 9abd 8fbe 80c1 843d 17f0 39bf
00000060: 8c8d 3d3e c8ff 0bbf 52ad 4c3e aebf 1ebf
00000070: 2094 b1be 68af a0be fc4c 2ebf ecc8 11bf
00000080: c375 b3be f767 393e 53f4 2d3e fcb4 a2be
00000090: b952 2dbc 78c8 73be 1cf0 903e f4f2 20bf
000000a0: 45d4 dfbd 6052 94bd 0d4d 95be e554 39be
000000b0: d37f 24be 3fa6 d6be 8364 12be d171 773d
000000c0: 5f9b a23c 7463 113e 86a0 94be e477 39bf
000000d0: a3e3 1d3d db10 91bd 2e55 3cbf e17f e93c
000000e0: 4a47 25bf 981a f8bd 560d 4c3e d9e2 cabe
000000f0: 6940 783e b3c6 ee3e 2782 dbbe 6d2c 99bc
00000100: c8da e2bd fb8b 0e3e e2f2 1e3d c768 b2ba
00000110: 0846 01be 235c cc3c 2508 6dbd 2cfc c3bc
00000120: a5e7 e9bd 4374 a3bc cec5 dc3d 33a7 19bf
00000130: 63e7 93be ed3c 2ebe 636f 083f fd54 b6bd
00000140: 0066 8a3e 7af4 adbe ca9a b3be f4e0 1bbf
00000150: 3637 59be a2bf a0bd 9851 f53d 1bf2 e4be
00000160: 66c7 7dbc 4997 2dbe 9b5a 4ebd 9382 ffbd
00000170: 8f4c 88bd 044a 45be f775 42be ce89 233d
00000180: e6c7 473e 4c88 c2bd 0e2e 863d 1360 ac3c
00000190: edcf e0be 555b 8d3d 9a32 acbc 072b b63d
000001a0: d4a6 0bbe 1bf4 6b3b 188b 39be 5082 fd3e
000001b0: e049 a03b 8aac a3be a027 9ebe 36aa d63d
000001c0: 14fd ed3d 6bfb 07bf d519 fcbd c492 39bd
000001d0: 223c cebd f056 1b3f bbae 81be 78bc 5cbf
000001e0: 4881 4fbd 148e 3ebc b334 0abe 33aa 2abd
000001f0: 7b6d 99bd b65c f7bc 23a2 ddbd 4299 603d
00000200: 5b68 d2bd 2069 a2bd 46a1 58be db7d a4bd
00000210: 68e2 babe 9df2 42be fe7d 64be 3e01 c13d
00000220: fc97 4f3e 64f5 b6be 30cf 89be e410 733d
00000230: 49b0 643e 0f82 d8bc acd9 a8be e9ab 9b3e
00000240: dc6c a73d 7e84 463e 6148 a9be 4bf7 57be
00000250: e8c3 b3bd a7cc 10bf ab98 17be 654e 0ebf
00000260: 60c8 37be b63d 86be 35cf b4bc e962 87bd
00000270: 87ae 5f3e f050 0cbe c9fc b0be 9948 a5bd
00000280: 2abf 693e fe2b 983d 87c7 263d ebaa ddbc
00000290: ece5 553e aea3 babe 7711 be3d 0af1 a7bd
000002a0: d029 30be 8eaf 3bbd 9e82 85be cfcf 1ebf
000002b0: f641 e5bd d9e7 ccbd 5aee 49be 1a51 e23d
000002c0: 3776 a8be 9853 39be 86cd c6be 7375 b8bd
000002d0: ea9a 92be cbf2 9d3c a35f 903d 2d74 51be
000002e0: a829 c0be 8325 2fbe 4986 d13d 2962 063e
000002f0: aa6d c43d 97f3 f93d 367d 7dbe b8be 893e
00000300: e8ad a9bd a7fe 8f3d 0314 9d3d 4800 48be
00000310: 57e4 b8bd b5b2 1e3d afb1 bd3d 3900 5a3e
00000320: b20d 79be c065 a2be 8b31 04be 4982 86bd
00000330: a0b3 7bbe 0ef7 1bbe 3d4c ed3d 0872 c9bd
00000340: 38c0 7f3d bfd0 773d 1cff 1cbf 3328 e7be
00000350: c135 dabe f0d7 30be e059 81be f466 3f3c
00000360: 9d3d c1bb e8e6 b2be bdd1 503e b019 f7bd
00000370: d050 8cbe 66da a9bb e860 59bd dd55 08bf
00000380: eed6 26be 65a4 ffbe 4f9d 9dbe d422 c73e
00000390: 51f9 cabe 0e7e 69bd 3da9 c6bd 72a0 d2be
000003a0: 8487 0abe b2ef d23c f861 7abe 04a7 10be
000003b0: e519 78bd 05f5 0dbe c124 d4be 93af 2c3e
000003c0: 0f3c b53d dbf4 243d 1b92 bdbe 4b01 a6bd
000003d0: 047a 15bf 22b5 58be 000c 38be 12b7 8dbe
000003e0: 585e 863e f321 353d 928f a93d 4523 8fbe
000003f0: 9c97 9c3e 97f3 023f 8656 23bf e657 d53b

fc3.bias f4 [32]
0.08760725 -0.26420614 -0.15170066 -0.1845552 -0.34905174 0.36197877 -0.49671978 0.096706435
-0.5634911 0.08963716 -0.051146187 0.07875673 -0.03384611 0.68290836 0.5445279 0.25604573
-0.5843837 -0.41253534 -0.05140278 0.59766257 -0.07261694 -0.8881148 0.18989493 -0.0020196675
-0.20673834 -0.36935392 -0.019495144 0.8068766 0.06997822 0.06481594 -0.33649305 -0.12140757
00000000: 6e6b b33d 0746 87be 6b57 1bbe 0afc 3cbe
00000010: e9b6 b2be 4855 b93e 0e52 febe 060e c63d
00000020: f440 10bf b093 b73d aa7e 51bd 354b a13d
00000030: 38a2 0abd 15d3 2e3f 2e66 0b3f 6d18 833e
00000040: 2c9a 15bf d537 d3be b98b 52bd 6a00 193f
00000050: 31b8 94bd 7e5b 63bf d173 423e 665c 04bb
00000060: 37b3 53be f51b bdbe 48b4 9fbc 778f 4e3f
00000070: be50 8f3d 38be 843d d148 acbe 88a4 f8bd

fc4.weight f4 [1, 32]
0.09800234 0.022471216 0.019662881 0.049177114 -0.050645776 -0.15314896 0.04501254 -0.09742935
0.037699215 -0.019762535 0.093745776 0.045176633 -0.03583402 -0.16743343 0.1163351 -0.051868364
0.035335157 0.05728301 0.087539576 -0.1779206 0.04067194 0.15465966 -0.09253513 -0.096394114
0.06457786 0.037603863 -0.13647915 -0.22074705 -0.09427638 -0.07385936 0.047623336 0.06664056
00000000: 73b5 c83d 8e15 b83c 0d14 a13c f16d 493d
00000010: f271 4fbd 15d3 1cbe 125f 383d 0a89 c7bd
00000020: 7e6a 1a3d 0ae5 a1bc c9fd bf3d 220b 393d
00000030: b1c6 12bd ab73 2bbe 1941 ee3d ec73 54bd
00000040: 99bb 103d 97a1 6a3d f347 b33d d130 36be
00000050: 9f97 263d 1a5f 1e3e 0f83 bdbd 476a c5bd
00000060: 6641 843d 8206 1a3d 31c1 0bbe 840b 62be
00000070: fa13 c1bd 9343 97bd b010 433d d97a 883d
