bootstrapping_connect_four_heuristic.pth (torch, 58396 bytes, 7 tensors)

fc1.weight f4 [128, 25]
0	0x3c956fae	0.01824173
1	0x3d3099ca	0.043115415
2	0x3e815ae4	0.25264657
3	0x3e86819c	0.2627076
4	0x3dcccd55	0.100001015
5	0x3dd6185a	0.104538634
6	0xbe21f917	-0.15817676
7	0xbe10dd70	-0.14146972
8	0xbe7a3cfd	-0.24437328
9	0xbde03948	-0.109484255
10	0xbdcaf457	-0.099098854
11	0xbdb0cc9a	-0.08632775
12	0x3e4b15af	0.1983249
13	0x3c763037	0.015026144
14	0xbe182c46	-0.14860639
15	0x3e2dc9cd	0.16971512
16	0x3cace23d	0.021103973
17	0xbc65caeb	-0.01402543
18	0xbdd8272a	-0.10554345
19	0xbc9ffb13	-0.019528901
20	0xbc1de60d	-0.009637368
21	0xbe515f70	-0.20446563
22	0xbdf33acc	-0.11876449
23	0x3dbc1547	0.09183746
24	0x3e33cb49	0.17558016
25	0xbd554358	-0.052066177
26	0xbe0ad0d5	-0.13556226
27	0xbe3be147	-0.18347655
28	0xbbb61fa1	-0.0055579697
29	0xbdeda54a	-0.11603792
30	0xbb8b04c1	-0.00424251
31	0xbe4277ab	-0.18990962
32	0xbe29a645	-0.16567333
33	0xbdfe0e3c	-0.12405059
34	0x3de9b023	0.114105485
35	0x3e02c5d5	0.1277078
36	0x3c8a695b	0.01689594
37	0x3d920c30	0.07131231
38	0xbe766652	-0.2406247
39	0x3c9db8ce	0.01925316
40	0xbcf3d532	-0.029764745
41	0x3d74e433	0.05978794
42	0x3db2d2db	0.08731624
43	0xbd4ac741	-0.04950643
44	0x3df698f7	0.120408945
45	0x3d6ae688	0.057348758
46	0x3df7e09d	0.121033885
47	0xbe05c728	-0.13064253
48	0xbc9ab019	-0.018882798
49	0x3dba4e55	0.09096972
50	0xbe0d68df	-0.13809536
51	0x3e158fa5	0.14605577
52	0xbdf0a528	-0.11750251
53	0x3b4c14bc	0.0031140288
54	0x3e054834	0.13015825
55	0xbe023e45	-0.12719066
56	0x3cf084ff	0.029360292
57	0xbc05a63b	-0.008157308
58	0x3e3ea2c6	0.1861678
59	0x3e0d9c8b	0.13829248
60	0xbd371ef0	-0.04470724
61	0xbe0a2f67	-0.13494645
62	0x3d2e04de	0.04248511
63	0x3c1873dc	0.009304967
64	0xbde49fe8	-0.11163312
65	0xbd807eac	-0.06274161
66	0x3d990e78	0.07473463
67	0xbe3e4fb3	-0.1858509
68	0xbe4a8af6	-0.19779572
69	0x3da9dd39	0.08294148
70	0xbda0d494	-0.07853046
71	0x3c01dca1	0.007926137
72	0xbd447de7	-0.047971632
73	0x3d8019c6	0.06254916
74	0x3c1abdc1	0.009444655
75	0xbe28e738	-0.16494453
76	0xbe3d34ca	-0.18477169
77	0x3df95040	0.121735096
78	0x3d17744f	0.036976155
79	0xbdf997a2	-0.12187125
80	0xbc4fd11e	-0.012684135
81	0x3c6571b3	0.014004159
82	0xbd4c57a6	-0.049888276
83	0xbda9ecaf	-0.08297097
84	0xbe1892c2	-0.14899734
85	0xbd5bb64e	-0.053640656
86	0xbd921795	-0.07133404
87	0x3e0d676e	0.13808987
88	0xbe466fd2	-0.19378594
89	0x3dfa21c4	0.122134715
90	0x3e05b68c	0.13057917
91	0x3d110422	0.035404332
92	0x3da680eb	0.08130058
93	0xbe3fb4a9	-0.1872126
94	0x3e0303bf	0.12794398
95	0x3ca52d83	0.020163303
96	0x3df1fbab	0.1181558
97	0x3e4c4066	0.19946441
98	0xbe47d70f	-0.19515632
99	0x3da4f849	0.08055169
100	0x3db6771d	0.08909438
101	0x3e255187	0.16144381
102	0xbe142465	-0.14467008
103	0xbd1070ee	-0.03526395
104	0x3de34a5b	0.110981666
105	0xbd0a13bd	-0.03371023
106	0x3dbbdde4	0.09173182
107	0x3d927d8b	0.07152852
108	0xbe6be85a	-0.23037854
109	0xbcbde9a4	-0.023182698
110	0xbd47274b	-0.048621457
111	0xbd655ae5	-0.055994887
112	0xbe4d901d	-0.20074506
113	0xbe2517fe	-0.16122434
114	0xbda552ea	-0.08072455
115	0xbd94f172	-0.072726145
116	0x3dd5ac6b	0.10433277
117	0xbd775e87	-0.060392883
118	0x3e154eb9	0.14580812
119	0x3e4b5867	0.19857942
120	0xbcf22052	-0.029556427
121	0xbe47f17a	-0.1952571
122	0xbd37a3bd	-0.044833887
123	0xbdad6d4b	-0.084681116
124	0x3c42bfef	0.011886581
125	0xbdbf5520	-0.09342408
126	0xbdb48ab0	-0.08815515
127	0xbe656fed	-0.22405978
128	0xbdcbe05b	-0.09954902
129	0x3d789ea3	0.060698163
130	0x3c990b10	0.018682033
131	0xbdb52624	-0.08845165
132	0x3e248b68	0.16068804
133	0x3e5d604a	0.21618763
134	0xbcfb154e	-0.030649807
135	0xbcc1d087	-0.023659004
136	0x3e3b4fb2	0.1829212
137	0x3e71137f	0.23542593
138	0x3e4490e2	0.19195893
139	0xbcc7ac2e	-0.024374094
140	0x3df2a34d	0.118475534
141	0xbe1ba5bf	-0.15199946
142	0xbd09b594	-0.033620432
143	0xbd14f04c	-0.036361977
144	0x3e5b2ebe	0.2140455
145	0x3e0f59ba	0.13999072
146	0x3d6d9b92	0.05800969
147	0x3d02c226	0.031923436
148	0xbd7a1425	-0.061054368
149	0xbd880f0b	-0.06643494
150	0x3d747480	0.059681416
151	0x3d433db4	0.047666267
152	0x3d3aee46	0.04563739
153	0x3e0f262d	0.13979407
154	0x3d96b32b	0.07358392
155	0xbdb3ee21	-0.08785654
156	0xbd93d4e4	-0.0721834
157	0xbde68cc1	-0.112573154
158	0xbe534a41	-0.20633794
159	0x3c440690	0.011964455
160	0xbe683936	-0.22678074
161	0x3dd73e9e	0.1050999
162	0xbdc5bd53	-0.09655251
163	0x3cab2237	0.020890338
164	0x3daa06e6	0.08302097
165	0xbe494e18	-0.19658697
166	0xbd160462	-0.036625274
167	0xbbf4d2e9	-0.0074714315
168	0xbd7b42ea	-0.06134311
169	0x3dbc2163	0.091860555
170	0x3dda4184	0.10657027
171	0x3e4479af	0.19187044
172	0x3e182755	0.14858754
173	0x3df90b27	0.1216033
174	0xbe586453	-0.2113202
175	0x3dfa86bb	0.12232729
176	0x3d8db3aa	0.06919034
177	0x3e91f484	0.28506863
178	0xbe16fe6a	-0.14745489
179	0xbe33d4a6	-0.17561588
180	0xbdff6a58	-0.12471455
181	0x3b8cd7a2	0.0042981664
182	0xbddcbda1	-0.10778356
183	0x3d484aa1	0.048899297
184	0x3d696011	0.05697638
185	0x3e33916b	0.17535941
186	0xbe386dba	-0.18010607
187	0xbe113a04	-0.14182287
188	0xbe1969dd	-0.1498179
189	0xbdd9a610	-0.10627377
190	0xbc5813a2	-0.013188275
191	0xbd9909c2	-0.07472564
192	0x3dd4baea	0.103872135
193	0x3d9c7dd6	0.07641189
194	0xbd58d4db	-0.05293737
195	0xbca65885	-0.020305881
196	0x3e70b79e	0.23507544
197	0x3ce10342	0.027467374
198	0x3d030d2c	0.031994984
199	0xbd89fd8f	-0.067378156
200	0xbe2cd234	-0.16877061
201	0xbe483f99	-0.1955551
202	0xbe1ceb0c	-0.15324038
203	0x3d4fefba	0.05076573
204	0x3b132532	0.002245259
205	0xbe0c36e8	-0.1369282
206	0xbd2d68d4	-0.0423363
207	0xbcfcc4f8	-0.03085564
208	0xbe1a6b44	-0.15079981
209	0x3c3f9dcc	0.011695337
210	0x3e26fbe2	0.16307023
211	0xbe2744ea	-0.16334882
212	0xbdd10cb4	-0.10207501
213	0x3d04d592	0.03243024
214	0xbe2dac04	-0.1696015
215	0xbdcbb279	-0.0994615
216	0xbdfd2c00	-0.12361908
217	0xbd1a3494	-0.0376478
218	0xbe377cf5	-0.17918761
219	0xbb66ce01	-0.0035218003
220	0xbdd703e7	-0.10498791
221	0x3e15b17f	0.1461849
222	0xbc5f5450	-0.0136309415
223	0x3d154ecf	0.03645211
224	0x3c24fe04	0.010070328
225	0x3d716540	0.05893445
226	0x3dd2c894	0.102921635
227	0x3c966c23	0.01836211
228	0xbd0a27bd	-0.033729304
229	0x3dc69ff9	0.09698481
230	0x3de7eb98	0.11324233
231	0xbe083073	-0.13299732
232	0x3d1239d3	0.035699677
233	0xbcf1c0b4	-0.029510833
234	0xbd850873	-0.06495752
235	0x3da34321	0.07971788
236	0x3e2eb2b4	0.17060357
237	0xbda2fc99	-0.079583354
238	0xbdbeb2ec	-0.093114704
239	0x3d791bab	0.0608174
240	0x3e1d911a	0.15387383
241	0x3d754241	0.059877638
242	0xbdfd7c69	-0.12377245
243	0x3bf555da	0.007487041
244	0x3d9e06a6	0.07716112
245	0xbd936a9c	-0.071980685
246	0xbe556228	-0.20838225
247	0xbdfc8678	-0.123303354
248	0xbe14a3e8	-0.1451565
249	0x3b5dc2d0	0.003383804
250	0xbe3e9cec	-0.18614548
251	0xbe0cc13b	-0.13745587
252	0xbdbff9cf	-0.09373819
253	0x3dd5bfa3	0.104369424
254	0x3d41253e	0.047154658
255	0x3ab2f4d6	0.0013653289

fc1.bias f4 [128]
0	0x3d0a4bd4	0.03376372
1	0x3db09b58	0.086233795
2	0xbd1951d0	-0.037431538
3	0x3db3610b	0.08758744
4	0xbe2c3986	-0.16818818
5	0xbe1ba3ae	-0.15199158
6	0xbcf79c3d	-0.030225867
7	0x3e0da2fc	0.13831705
8	0x3e305b26	0.1722227
9	0xbe621d48	-0.22081482
10	0x3e461957	0.19345604
11	0xbe00b203	-0.12567906
12	0xbd659e20	-0.056059003
13	0xbd816c11	-0.0631944
14	0x3c0e0098	0.008667134
15	0xbe10fb1d	-0.14158292
16	0xbe21c1fc	-0.15796655
17	0xbdf32bc6	-0.118735835
18	0xbce562ff	-0.028001307
19	0x3c389269	0.011265376
20	0xbde1f5c1	-0.11033202
21	0x3d7f49fa	0.06232641
22	0xbe10e3b4	-0.14149362
23	0x3d425a1f	0.047449227
24	0xbe29b164	-0.16571575
25	0xbdf51e7f	-0.11968707
26	0xbe77ae38	-0.24187553
27	0xbd22b0ea	-0.0397195
28	0xbd9a89e1	-0.075458296
29	0xbe5277b2	-0.20553473
30	0x3e0ae990	0.1356566
31	0x3e657143	0.22406487
32	0xbd397597	-0.045278158
33	0xbe3e9db8	-0.18614852
34	0xbd9f4a2a	-0.077778175
35	0xbd9f7974	-0.07786837
36	0xbe20223b	-0.15638058
37	0x3c83f148	0.016106263
38	0x3e37c28c	0.17945307
39	0x3cc55e4b	0.024092814
40	0xbe4d2b92	-0.20036152
41	0x3e18460a	0.14870468
42	0xbe05821c	-0.13037914
43	0x3de424f5	0.111398615
44	0xbe0a7ca2	-0.13524106
45	0x3ce54680	0.027987719
46	0x3e1eb96f	0.15500425
47	0xbd2044e9	-0.039128218
48	0x3daccf4c	0.08437976
49	0xbe410e20	-0.18853045
50	0x3e0fb95c	0.14035553
51	0xbc84fa02	-0.016232494
52	0xbc12f34f	-0.008969142
53	0xbd95db3a	-0.07317205
54	0xbd1e8be8	-0.038707644
55	0x3d5358fd	0.051598538
56	0x3e2c4d2c	0.16826314
57	0xbdd79799	-0.10526962
58	0xbdcdf8ae	-0.100571975
59	0xbdafbc74	-0.085808665
60	0x3d59df40	0.053191423
61	0xbc27ec9c	-0.010249283
62	0xbdc31c96	-0.09526937
63	0x3d3bd0ff	0.04585361
64	0x3bdf0ee9	0.0068071974
65	0x3d6ce20b	0.05783276
66	0x3d64cea0	0.055861115
67	0x3d471629	0.048605118
68	0x3e137fcf	0.14404224
69	0xbdeed58e	-0.11661826
70	0xbd2e7a33	-0.042597007
71	0xbdc85195	-0.097811855
72	0x3d828332	0.0637268
73	0x3e66601f	0.22497605
74	0xbe210216	-0.15723452
75	0xbe011f8a	-0.12609687
76	0xbe25dfeb	-0.16198699
77	0x3e07bf24	0.13256508
78	0x3e1e4948	0.15457642
79	0xbd79d727	-0.0609962
80	0x3d57a9ce	0.052652173
81	0xbe33f109	-0.17572416
82	0x3dca39a0	0.09874272
83	0xbde88e78	-0.11355299
84	0xbd6167bc	-0.05503057
85	0x3d371190	0.044694483
86	0x3db83caa	0.08995946
87	0x3e14b76b	0.14523093
88	0xbe1cbd68	-0.15306628
89	0x3e11f480	0.14253426
90	0x3e12ac97	0.1432365
91	0x3d5bcfc4	0.053664938
92	0x3e006d60	0.12541723
93	0x3cb252a7	0.021767927
94	0xbdf3d1ef	-0.11905276
95	0xbe3d561a	-0.18489876
96	0xbd4e393a	-0.050347544
97	0x3dd179fd	0.102283455
98	0xbd9fb1d9	-0.077975936
99	0x3d9145b2	0.070933715
100	0x3ded2862	0.11579968
101	0xbe028ec0	-0.12749767
102	0xbcf4340c	-0.029809974
103	0x3e402310	0.18763375
104	0x3d9f9c5b	0.07793494
105	0x3e20b1d6	0.15692839
106	0x3c9f4fb2	0.019447181
107	0x3de25602	0.11051561
108	0x3db0b382	0.086279884
109	0x3d1c5435	0.038166244
110	0x3d1cd5a1	0.03828967
111	0x3c3adef7	0.011405698
112	0xbcd8c7ac	-0.026462398
113	0xbe6031be	-0.21893975
114	0x3cbac744	0.022800095
115	0x3deab2c9	0.11459882
116	0x3db59517	0.08866327
117	0xbe0d3066	-0.13787994
118	0xbbb333d4	-0.005468825
119	0x3b512f44	0.0031919042
120	0x3d294bb3	0.041331958
121	0xbda551d0	-0.08072245
122	0xbe5eb6a2	-0.21749356
123	0xbdfd096a	-0.12355311
124	0x3d5d9afb	0.05410288
125	0xbe4382d2	-0.19092873
126	0x3dd0fd1c	0.10204527
127	0xbcbb2bc2	-0.022848014

fc2.weight f4 [64, 128]
0	0xbda298f7	-0.07939332
1	0x3db181b4	0.08667317
2	0xbd7adb59	-0.061244342
3	0xbb578328	-0.0032884572
4	0xbd85fa4c	-0.06541881
5	0xbdaf5281	-0.08560658
6	0x3d0cd7e0	0.034385562
7	0xbd1bb2b9	-0.03801224
8	0x3d8e1076	0.069367334
9	0xbb93cb85	-0.0045103454
10	0xbdc94ffb	-0.09829708
11	0xbdeb21cd	-0.11481056
12	0x3c184bee	0.009295447
13	0xbd45be84	-0.048277393
14	0xbcde65de	-0.027148183
15	0xbd046612	-0.032323904
16	0xbce3480d	-0.027744317
17	0x3d3bcc08	0.045848876
18	0xbd1df204	-0.038560882
19	0xbcff861e	-0.031191882
20	0xbd927874	-0.07151881
21	0xbce68495	-0.028139392
22	0xbdd65727	-0.10465842
23	0x3d85e5bc	0.06537959
24	0xbcb1fd64	-0.021727271
25	0x3d04cb2d	0.032420326
26	0xbd8c92c4	-0.06863931
27	0x3ce0c44e	0.027437355
28	0x3ccdbd59	0.025114702
29	0xbdb3ead9	-0.08785028
30	0xbabcf2c5	-0.0014415613
31	0x3d9ae1cf	0.07562601
32	0xbb95c78e	-0.004570908
33	0xbd8e0924	-0.06935337
34	0x3d2c05f9	0.041997883
35	0x3dc19a9e	0.09453319
36	0xbd433852	-0.047661133
37	0x3d90c327	0.07068472
38	0xbdba0939	-0.0908379
39	0xbd2ded72	-0.042462774
40	0x3d3e83fb	0.046512585
41	0x3d8a16bd	0.06742618
42	0xbd1ce8aa	-0.038307823
43	0x3c957abc	0.018247
44	0xbcdff032	-0.027336214
45	0xbd4097c8	-0.04701975
46	0x3d408db3	0.047010135
47	0xbd8dabf6	-0.069175646
48	0x3d38c343	0.04510809
49	0x3d9df033	0.0771183
50	0x3da9288d	0.082596876
51	0x3c5f467f	0.013627647
52	0xbda2358c	-0.079203695
53	0xbd0484ee	-0.032353334
54	0xbdd3423e	-0.10315369
55	0x3d495287	0.04915097
56	0x3bf4d743	0.0074719503
57	0xbd9aacb0	-0.07552469
58	0x3d163eec	0.0366811
59	0xbd5459bf	-0.0518434
60	0xbd2bb781	-0.04192305
61	0xbcf5ab32	-0.029988859
62	0x3cb30efd	0.021857733
63	0x3b3c185c	0.0028701043
64	0xbd46ac77	-0.04850432
65	0xbdd0083b	-0.1015782
66	0xbd1549f6	-0.036447488
67	0xbd8abea5	-0.06774644
68	0x3c18b42f	0.009320303
69	0x3d873366	0.066016
70	0x3bfb1349	0.007662211
71	0xbcc733d2	-0.024316702
72	0xbd54dba7	-0.05196729
73	0x3d3850d3	0.044998955
74	0x3b7752fd	0.0037738674
75	0x3d527aed	0.051386762
76	0xbdc3a0ff	-0.09552192
77	0xbd294516	-0.04132565
78	0x3d195c25	0.03744139
79	0x3d27235e	0.040805213
80	0x3d67161e	0.056417577
81	0x3db01839	0.0859837
82	0xbdb2aa75	-0.08723918
83	0xbcc5f637	-0.024165256
84	0x3c672e2f	0.014110132
85	0xbdc212c6	-0.09476237
86	0x3caf71a9	0.021416502
87	0xbd5a2bb9	-0.053264353
88	0x3d169c7c	0.03677033
89	0xbd42bdd5	-0.04754432
90	0x3d429ae2	0.04751099
91	0xbd57882e	-0.052620105
92	0xbd2b9566	-0.041890524
93	0xbdac2400	-0.08405304
94	0xbdcee4dd	-0.10102246
95	0x3d64c71a	0.05585394
96	0xbd229ee7	-0.039702322
97	0x3ca85cba	0.020552028
98	0xbd68b070	-0.05680889
99	0x3cb8d406	0.022562038
100	0xbca1faca	-0.019772906
101	0xbd00ed69	-0.031476412
102	0x3db3f3d3	0.0878674
103	0x3c003c47	0.007826871
104	0x3d532896	0.051552378
105	0xbdb730ee	-0.089448795
106	0x3cb76fd5	0.022392193
107	0xbd981e21	-0.07427622
108	0xbc4b9767	-0.012426234
109	0xbde2277f	-0.110426895
110	0x3d07e116	0.033173643
111	0xbd952b30	-0.07283628
112	0x3d5acdcd	0.053418923
113	0xbd9ce6d4	-0.076612145
114	0xbd7e26be	-0.062048666
115	0x3d34bb8f	0.044124182
116	0xbca8c723	-0.020602768
117	0xbd23f7aa	-0.040031113
118	0xbd3ec77c	-0.046576962
119	0xbdc8f3f7	-0.098121576
120	0xbd4bf0c1	-0.049790148
121	0x3cffb810	0.031215698
122	0xbc609a45	-0.013708656
123	0xbd91b48e	-0.07114516
124	0xbdae77a3	-0.08518913
125	0x3d032705	0.032019634
126	0xbdb4d658	-0.08829945
127	0xbd67123c	-0.056413874
128	0x3d83fd68	0.06444818
129	0xbc8980be	-0.016785022
130	0xbd91bdac	-0.07116255
131	0x3e2e0f70	0.16998076
132	0x3bd12104	0.0063821096
133	0xbd336c13	-0.04380424
134	0x3d4514c2	0.0481155
135	0x3da275ee	0.079326496
136	0x3cd9e1de	0.02659696
137	0xbd631f50	-0.055449784
138	0x3d6c7e72	0.057737775
139	0xbd76600e	-0.0601502
140	0xbd37db2f	-0.044886764
141	0xbdcd9df8	-0.10039896
142	0x3ca4cd0f	0.02011731
143	0xbda2f23c	-0.07956359
144	0x3d96d273	0.07364359
145	0xbd8a517d	-0.06753824
146	0xbcf6ca3c	-0.03012573
147	0x3e0446c4	0.1291762
148	0x3de3c9e9	0.11122496
149	0x3bae1cd8	0.005313497
150	0x3ca1bdf0	0.01974389
151	0x3d644446	0.055729173
152	0x3d4a52b2	0.04939527
153	0xba5b0168	-0.00083543966
154	0x3d31ffca	0.04345683
155	0x3c4e569a	0.01259389
156	0xbd22663d	-0.039648283
157	0xbcf51025	-0.029914925
158	0x3e25eab1	0.16202809
159	0xbe0ad5dc	-0.13558143
160	0xbc2183ae	-0.009858055
161	0x3d9b5904	0.07585338
162	0x3de7698d	0.11299429
163	0x3d8f86f8	0.07008165
164	0x3cead1eb	0.02866455
165	0xbc8476b8	-0.01616989
166	0x3aa62c18	0.0012677936
167	0xbd5694cd	-0.052388
168	0xbd8783d3	-0.0661694
169	0x3cb2a749	0.021808283
170	0xbc84067d	-0.016116375
171	0xbd9de530	-0.0770973
172	0xbd93953e	-0.072062
173	0xbd40adde	-0.047040813
174	0xbd11da03	-0.035608303
175	0x3d56ad89	0.05241159
176	0x3c6219db	0.01380011
177	0xbd411361	-0.04713762
178	0x3d7fd91d	0.062462915
179	0xbd82cc4c	-0.06386623
180	0x3cf818a2	0.030285183
181	0x3d7e34b6	0.062061988
182	0xbd190b58	-0.037364334
183	0xbd6b6a3a	-0.057474352
184	0xbda27fb7	-0.07934516
185	0xbb05abc8	-0.002039658
186	0x3dca4cee	0.098779544
187	0xbc585cad	-0.013205689
188	0xbcaa1638	-0.020762548
189	0x3ca3918e	0.019966867
190	0x3da0b41b	0.078468524
191	0xbd7a9c17	-0.061184015
192	0xbca9aa2d	-0.020711029
193	0xbc158a69	-0.009127238
194	0xbdc28fe6	-0.09500103
195	0xbdcf08b8	-0.10109085
196	0xbd5c42fa	-0.05377481
197	0x3dd89350	0.10574973
198	0xbd946033	-0.07244911
199	0xbc8434b3	-0.01613841
200	0xbcab9bd8	-0.020948336
201	0x3d2a630c	0.041598365
202	0xbd83eab5	-0.06441251
203	0xbd80aacb	-0.06282576
204	0x3c9f65a2	0.019457642
205	0xbdb16942	-0.086626545
206	0xbc7ab955	-0.015302976
207	0xbd5f40ca	-0.054505147
208	0xbdb1da68	-0.08684236
209	0xbbca0d7e	-0.006166159
210	0x3d73e2cd	0.059542466
211	0xbd81c65d	-0.06336663
212	0x3d499cf3	0.049221944
213	0x3d061859	0.032738063
214	0xbcc59717	-0.024119897
215	0x3d7088d6	0.058724247
216	0x3d8120a3	0.06305053
217	0x3dad8e1d	0.084743716
218	0x3c5502c0	0.013001144
219	0xbd3d5066	-0.046219252
220	0xbd94dbc5	-0.0726848
221	0x3df0a9d4	0.11751142
222	0x3d32f913	0.043694567
223	0x3d93cb51	0.07216514
224	0xbba13adf	-0.004920348
225	0x3d62efe9	0.055404577
226	0xbc2c85e3	-0.010529968
227	0xbbd246d4	-0.006417135
228	0xbdb116fb	-0.08646961
229	0xbd918b87	-0.07106691
230	0xbd6a6386	-0.05722382
231	0xbd9fc00d	-0.07800303
232	0x3ca25905	0.019817838
233	0xbc5e39ed	-0.013563615
234	0xbda90a54	-0.08253923
235	0x3d5fabee	0.054607324
236	0x3dcd332a	0.100195244
237	0xbbf818ce	-0.0075713163
238	0x39eb0f37	0.0004483403
239	0x3d2aa928	0.041665226
240	0x3d671b42	0.05642248
241	0xbd4edeab	-0.05050532
242	0xbdffcae1	-0.12489868
243	0xbd194ca9	-0.037426624
244	0x3c75c318	0.015000127
245	0x3e26ccee	0.16289112
246	0xbd8c7598	-0.06858367
247	0x3c0c86c0	0.008577049
248	0x3d74db6f	0.05977958
249	0x3def7fe9	0.11694319
250	0x3b167c3a	0.0022962228
251	0x3d714440	0.05890298
252	0x3d64c2c1	0.055849794
253	0x3cd0e7ad	0.025501097
254	0xbd91a7a5	-0.07112054
255	0x3de364ef	0.11103236

fc2.bias f4 [64]
0	0xbdaf1465	-0.08548812
1	0xbd572178	-0.052522153
2	0xbdd159f2	-0.10222234
3	0xbddc2a1e	-0.10750221
4	0x3c5eb0ca	0.0135919545
5	0xbd80537f	-0.062659256
6	0xbdb8b04b	-0.09018
7	0x3ca8ccf7	0.020605547
8	0xbd98e7ea	-0.07466109
9	0xbdce60c2	-0.10077049
10	0xbd21dd5d	-0.03951775
11	0x3cbbbbef	0.022916762
12	0xbd9160b5	-0.070985235
13	0x3d9a37af	0.07530152
14	0x3cf4fc63	0.029905504
15	0x3c9e4434	0.019319631
16	0x3d742008	0.05960086
17	0x3c86888a	0.016422529
18	0xbd36254c	-0.044469163
19	0x3cdf56de	0.027263101
20	0xbd9b64d8	-0.07587594
21	0xbd88df3b	-0.06683203
22	0xbcb63092	-0.022239957
23	0x3cfdffe0	0.0310058
24	0xbd9f1ad7	-0.07768791
25	0xbc4818fa	-0.012212986
26	0xbd82faf7	-0.06395524
27	0x3d2b41a6	0.041810654
28	0xbd96fe84	-0.07372764
29	0xbd846450	-0.064644456
30	0xbd441541	-0.04787183
31	0x3da8c05c	0.08239815
32	0xbdc9bd44	-0.09850553
33	0x3cdd72be	0.027032252
34	0xb7cab1ac	-2.4163011e-05
35	0x3b247e18	0.0025099572
36	0x3dc2dc9d	0.09514735
37	0xbc834753	-0.016025221
38	0xbd9d087d	-0.07667635
39	0xbd8cb165	-0.06869773
40	0x3dc88274	0.09790507
41	0xbc9462dd	-0.018113548
42	0x3c074274	0.00825559
43	0xbd876563	-0.06611135
44	0x3d69d69d	0.057089437
45	0x3c840d3b	0.01611959
46	0x3be3b4ca	0.006949042
47	0xbdb7f8d8	-0.0898301
48	0xbd193368	-0.03740254
49	0x3d14221f	0.036165353
50	0x3dfca845	0.12336782
51	0x3cc4f9c5	0.02404488
52	0x3c77b04d	0.015117717
53	0xbd0fdf1d	-0.035124887
54	0xbd507086	-0.05088856
55	0x3c862955	0.01637713
56	0x3da27cc9	0.07933957
57	0xbd8d2b34	-0.06893006
58	0xbdcdea3c	-0.10054442
59	0x3c47b017	0.012187979
60	0xbcc8ecf8	-0.024527058
61	0xbdc018f3	-0.09379759
62	0x3a89f006	0.0010523803
63	0x3c8d5fc5	0.01725758

fc3.weight f4 [32, 64]
0	0xbdc038f1	-0.09385861
1	0x3d47506a	0.048660673
2	0x3cb1d9cc	0.021710299
3	0x3d8adb94	0.067801625
4	0xbcabd392	-0.020974908
5	0x3d04f162	0.032456763
6	0xbc9b45ae	-0.018954124
7	0xbdd25cd4	-0.10271612
8	0x3daeb1aa	0.085299805
9	0x3c8615d4	0.01636783
10	0xbdc562c8	-0.09637982
11	0xbd6be1cd	-0.057588387
12	0xbdcd49bd	-0.1002383
13	0xbda8cf96	-0.08242719
14	0xbca760eb	-0.020431956
15	0xbaaeca52	-0.0013335443
16	0xbdc065be	-0.09394406
17	0x3d3ddce9	0.046353254
18	0xbda2f745	-0.07957319
19	0xbc7a4e4b	-0.015277456
20	0xbca13bb4	-0.019681789
21	0x3d28a46f	0.04117244
22	0xbdb4b0db	-0.08822795
23	0xbd694bd9	-0.0569571
24	0x3dbf49d4	0.093402535
25	0xbdbc91f9	-0.092075296
26	0x3d95a06c	0.07305989
27	0x3de67795	0.11253277
28	0xbd2a1040	-0.041519403
29	0xbe317be2	-0.17332414
30	0xbdd27b3d	-0.10277412
31	0xbd345390	-0.044025004
32	0xbd47b63c	-0.048757777
33	0x3d225443	0.03963114
34	0x3e1531f6	0.1456984
35	0xbd83af22	-0.06429888
36	0xbdeb2647	-0.1148191
37	0x3dad0043	0.084473155
38	0x3dc5e54e	0.09662877
39	0xbd2ab6f2	-0.041678376
40	0xbd650197	-0.05590972
41	0x3c0f936b	0.0087631745
42	0x3d8de34c	0.06928119
43	0xbd3795a0	-0.044820428
44	0xbd4d822d	-0.050172973
45	0x3db8276d	0.08991895
46	0x3bee74eb	0.0072771213
47	0x3d6247c1	0.05524421
48	0x3d290d36	0.041272365
49	0x3d236b47	0.03989723
50	0xbe09a43a	-0.13441554
51	0xbd7eb5e3	-0.06218518
52	0xbd9dc3b1	-0.07703341
53	0x3d1dfb37	0.038569655
54	0xbdd28813	-0.1027986
55	0x3dbb95c6	0.091594264
56	0xbdfd970e	-0.12382327
57	0x3cf0fb53	0.029416716
58	0x3db6a3e7	0.08917981
59	0x3db8adbc	0.09017512
60	0x3dbd27b4	0.092360884
61	0x3d0627c1	0.032752756
62	0xbd5bac38	-0.053631037
63	0x3cf47aa8	0.029843643
64	0xbd9ef2f7	-0.077611856
65	0x3d834ec0	0.06411505
66	0x3d0d6e1c	0.034528837
67	0x3dbbcc10	0.09169781
68	0xbdcd0c35	-0.10012094
69	0xbd82e201	-0.06390763
70	0xbdf5d479	-0.120034166
71	0x3a964ec9	0.0011467572
72	0xbcafb62a	-0.021449167
73	0x3d5ef2a5	0.054430623
74	0x3c2e815d	0.01065096
75	0xbde47ac8	-0.11156231
76	0xbba79cd0	-0.005115129
77	0x3dbaa71c	0.09113905
78	0x3ce53e54	0.027983822
79	0x3d95690f	0.07295429
80	0x3bec5261	0.007211969
81	0xbda4fd36	-0.08056109
82	0xbbc968d1	-0.0061465283
83	0xbd779f3d	-0.060454596
84	0xbdb33390	-0.08750069
85	0xbe032617	-0.12807499
86	0x3ca3e172	0.020004962
87	0xbd848c4e	-0.064720735
88	0x3e010ee5	0.12603338
89	0x3db5228c	0.0884448
90	0xbda58ee9	-0.080838986
91	0x3c70cc95	0.014697214
92	0xbce51423	-0.027963703
93	0x3d293a26	0.04131522
94	0xbd58a49b	-0.052891355
95	0xbcee1ce8	-0.029066518
96	0x3de8ef34	0.113737494
97	0x3d75a903	0.059975635
98	0xbd8800c0	-0.06640768
99	0x3d21d507	0.0395098
100	0xbdc761ea	-0.097354725
101	0x3b6b2f7a	0.0035886453
102	0xbd716334	-0.058932498
103	0x3dbc8e5e	0.09206842
104	0xbdc5e2bc	-0.09662387
105	0xbd2fcab4	-0.042917922
106	0x3dc0513e	0.09390496
107	0xbd02cc84	-0.031933323
108	0x3ce5ed9d	0.028067404
109	0xbdc21d13	-0.09478202
110	0x3d9bee9a	0.07613869
111	0xbd8f2085	-0.069886245
112	0x3d7ec756	0.06220182
113	0x3d31fab8	0.043451995
114	0xbd711356	-0.05885633
115	0xbdad285a	-0.08454962
116	0xbdd87005	-0.10568241
117	0x3d48f3b1	0.049060527
118	0xbdac38f5	-0.08409301
119	0xbde70dee	-0.11281954
120	0xbd80f30d	-0.06296358
121	0x3c6d29b4	0.014475275
122	0xbd95be01	-0.07311631
123	0x3da1fd7d	0.07909677
124	0x3d96d1ca	0.07364233
125	0x3d411754	0.047141388
126	0xbd19d64e	-0.037557893
127	0x3d480225	0.04883017
128	0xbdc7e3b2	-0.09760226
129	0x3d428813	0.04749305
130	0x3c5f31cf	0.013622715
131	0xbe015632	-0.12630537
132	0xbdc88f1e	-0.097929224
133	0xbe0866ae	-0.13320419
134	0xbcb39ce7	-0.021925403
135	0x3dc763d6	0.09735839
136	0x3ce8812c	0.028381906
137	0xbdc04d3c	-0.09389731
138	0xbc4be776	-0.012445321
139	0x3da4c413	0.08045211
140	0x3e2b7b03	0.16746144
141	0x3c00f0c3	0.007869902
142	0xbd284c36	-0.041088305
143	0x3da18b1b	0.078878604
144	0x3d9bcbfa	0.07607265
145	0x3d96cb60	0.073630095
146	0xbd822a8f	-0.06355774
147	0xbda84c42	-0.0821767
148	0x3c8b0e14	0.016974486
149	0xbe0d896b	-0.13821952
150	0x3d9434e0	0.072366476
151	0xbd8941d5	-0.067020096
152	0xbd9bdea6	-0.07610826
153	0xbccb239c	-0.024797253
154	0xbbe1d9c6	-0.0068924157
155	0x3de2ec9f	0.11080288
156	0x3d8e7d62	0.069575086
157	0x3d4a7192	0.049424715
158	0xbd8da0c4	-0.06915429
159	0xbda4c048	-0.08044487
160	0x3dd01350	0.101599336
161	0x3d476e08	0.04868892
162	0xbdcff478	-0.101540506
163	0x3d0381b6	0.032106124
164	0xb9b72f9a	-0.00034939946
165	0x3d7bb51f	0.061452027
166	0xbb2c84db	-0.0026324305
167	0xbde3ba23	-0.11119487
168	0x3d2dfbff	0.04247665
169	0xbdacf154	-0.08444467
170	0xbdeafe83	-0.114743255
171	0xbe1207da	-0.14260808
172	0x3d17d941	0.037072424
173	0x3de53055	0.11190859
174	0x3cb21db8	0.021742687
175	0xbd5ad520	-0.053425908
176	0xbd96d6d8	-0.07365197
177	0xbd0a7f96	-0.03381308
178	0xbd937daf	-0.072017066
179	0x3dd2c1ce	0.102908716
180	0x3b2748bf	0.0025525538
181	0x3da0181a	0.07817097
182	0x3cbcfbe9	0.023069339
183	0xbaa94d47	-0.0012916707
184	0xbd82838c	-0.06372747
185	0xbdca90e4	-0.09890917
186	0x3cbb72f5	0.022881964
187	0x3e014eff	0.12627791
188	0xbda7222d	-0.081608154
189	0x3dde7dc5	0.108638324
190	0xbd014eae	-0.031569175
191	0x3dd1bd1d	0.102411486
192	0xbd6bb700	-0.05754757
193	0x3d20ced6	0.039259754
194	0x3da72208	0.08160788
195	0x3b007862	0.0019603004
196	0x3dd53b20	0.10411668
197	0x3d59187b	0.053001862
198	0x3d93e3a6	0.07221155
199	0x3d757949	0.05993012
200	0xbdb125d5	-0.08649794
201	0xbdb4bf19	-0.088255115
202	0xbdcbc823	-0.099502824
203	0x3d75cca3	0.06000961
204	0xbd4f3f6e	-0.0505976
205	0x3d801e64	0.062557966
206	0x3d8fa7aa	0.07014401
207	0x3db1fa8b	0.086903654
208	0xbbc44215	-0.005989323
209	0x3e178c08	0.14799511
210	0xbddff507	-0.10935407
211	0xbdf3ce32	-0.11904563
212	0x3d3cb7e1	0.046073798
213	0xbc50e52a	-0.0127499495
214	0x3c0c8204	0.00857592
215	0x3deaa469	0.1145714
216	0x3d9ca1ec	0.07648072
217	0xbd99bf3d	-0.07507179
218	0x3c8c394b	0.017117163
219	0xbc5a049b	-0.013306762
220	0xbde66dfe	-0.11251448
221	0x3da091c1	0.078403
222	0xbdc8c7d4	-0.09803739
223	0xbd882c6f	-0.066491
224	0x3dd34048	0.10314995
225	0xbd5d2eb6	-0.053999625
226	0xbdba0999	-0.09083862
227	0x3dc4b958	0.09605664
228	0xbdc1a74a	-0.09455736
229	0xbd2345fb	-0.03986166
230	0x3d8a302c	0.06747469
231	0xbd8f8627	-0.070080094
232	0x3d556659	0.05209956
233	0xbcdae872	-0.026722167
234	0x3c8fa819	0.01753621
235	0xbcf42d7b	-0.029806843
236	0x3d098adc	0.033579692
237	0x3d8f36da	0.06992884
238	0xbd0920b7	-0.033478465
239	0xbd44fe4e	-0.048094086
240	0x3dfbcee6	0.12295322
241	0x3d64f70a	0.055899657
242	0x3db6557c	0.089030236
243	0x3a6851d4	0.0008862291
244	0xbded0b17	-0.11574381
245	0x3d335d91	0.043790404
246	0x3dc60f8b	0.09670933
247	0x3d0f5642	0.03499437
248	0x3dd85800	0.1056366
249	0xbd25539f	-0.04036295
250	0x3ccc3256	0.024926346
251	0x3bf46229	0.0074579907
252	0xbccc0f73	-0.02490971
253	0x3ce56530	0.028002352
254	0xbe04523d	-0.12921996
255	0x3d2fd2e8	0.042925745

fc3.bias f4 [32]
0	0x3dc3e215	0.09564606
1	0x3d41fe1a	0.04736147
2	0xbdd8f1f9	-0.105930276
3	0xbd8f2f8a	-0.06991489
4	0xbe24318d	-0.16034527
5	0x3dafe5fd	0.08588789
6	0xbd8baac7	-0.068196826
7	0xbc5a3a17	-0.013319514
8	0x3da968c5	0.08271936
9	0x3de8d5bb	0.11368891
10	0xbd534c75	-0.051586587
11	0x3d2d23fc	0.042270645
12	0x3dfd9c07	0.123832755
13	0x3df8c4f7	0.12146943
14	0x3dc12d07	0.094324164
15	0x3dd3f377	0.103491716
16	0xbdb9b9ee	-0.090686664
17	0xbcbe12e6	-0.02320237
18	0x3d802dfc	0.06258771
19	0x3dacb423	0.08432796
20	0xbd7c1bd3	-0.061549973
21	0xbca87cf1	-0.02056739
22	0xbc170ee4	-0.009219859
23	0xbd8360e3	-0.06414964
24	0xbd0be65e	-0.034155242
25	0x3c83d124	0.016090937
26	0xbd304e3a	-0.043043353
27	0x3dcff49b	0.10154077
28	0x3c667919	0.014066958
29	0x3d6188c5	0.055062074
30	0xbd36beef	-0.044615682
31	0x3d0bafb5	0.034103114

fc4.weight f4 [1, 32]
0	0x3d7e39e8	0.062066942
1	0x3dbc19e1	0.091846235
2	0x3de2a173	0.1106595
3	0x3de80403	0.1132889
4	0xbddafa04	-0.10692218
5	0xbd6ac4c8	-0.05731657
6	0x3d4d7135	0.05015679
7	0xbe04588b	-0.12924401
8	0x3dc34308	0.095342696
9	0xbcf584b1	-0.029970499
10	0x3d6d9b7f	0.05800962
11	0x3d9543db	0.07288333
12	0xbd156d7b	-0.03648136
13	0xbd4bc0a3	-0.04974426
14	0x3e1d560f	0.1536486
15	0xbd02115c	-0.031754836
16	0x3bf9f6da	0.007628304
17	0x3cd0e215	0.02549843
18	0x3dd0338f	0.10166084
19	0xbdfeecad	-0.12447486
20	0x3ba480cf	0.005020238
21	0x3d5a5a7a	0.05330894
22	0xbdd3a6a5	-0.10334519
23	0xbd611ef7	-0.05496117
24	0x3dc9ac84	0.09847358
25	0x3b5b4398	0.0033457037
26	0xbca0f270	-0.019646853
27	0xbda0ec78	-0.07857603
28	0xbd625e15	-0.055265505
29	0xbd743fb0	-0.05963105
30	0x3c9b26b3	0.018939352
31	0x3e02100a	0.12701431
