bootstrapping_connect_four_heuristic.pth (torch, 25116 bytes, 7 tensors)

fc1.weight f4 [64, 42]
000000 07 bd 97 3d 50 ac 1d be a7 0c a0 bc a7 87 5a 3c
       0.07409101 -0.15397763 -0.019537283 0.013338006
000010 10 0e c8 3c 51 ab 2b bd 99 9d b3 3d 67 05 13 be
       0.024420768 -0.041911427 0.08770294 -0.1435753
000020 5a ae 1a ba c7 0e 00 bd 77 62 83 3c 3c 92 ff 3c
       -0.0005900614 -0.031264093 0.016038163 0.03119766
000030 33 6f c0 bb f9 d5 2c 3d 62 b4 1b be 03 3e af bd
       -0.005872631 0.042196248 -0.1520553 -0.0855675
000040 b7 e9 89 3a a0 1b bc 3c 91 98 e6 bc 24 5c f4 bd
       0.0010521923 0.022962391 -0.028148921 -0.11931637
000050 9a cd 15 be 8d 86 4c 3d d3 ed b6 bd db e0 ec 3c
       -0.14629212 0.049933005 -0.0893208 0.028915813
000060 c7 9b a0 3d 15 a6 75 bb 82 83 e3 bd a8 b2 3a bb
       0.07842212 -0.0037483026 -0.111090675 -0.0028487835
000070 11 58 97 3d de c5 0f 3c db d4 9a 3d c1 4d 83 bd
       0.07389844 0.008775203 0.0756013 -0.06411315
000080 4d 84 f1 bc 91 a0 90 bd 43 7d 0f be 62 86 35 be
       -0.029482031 -0.070618756 -0.14012627 -0.17727044
000090 bc 75 f1 3d 3d 1a 08 be 29 3f 12 3e 1d 7f c2 bd
       0.11790034 -0.13291259 0.14281906 -0.09496901
0000a0 85 bc a5 3d ee ff 17 3e 55 55 dd bd 11 8c cb bd
       0.08092598 0.14843723 -0.108072914 -0.09938825
0000b0 f1 79 4d 3d 2c b3 ee bd 13 0c 8c bd 73 98 f2 3d
       0.05016512 -0.11655268 -0.068382405 0.11845484
0000c0 ed ff 0a be e9 8a 14 bc 4f ed c5 3c 7f c2 f0 3b
       -0.1357419 -0.009066322 0.02416101 0.0073474045
0000d0 7e 71 b5 3d 2a c4 2e 3c 18 f5 e4 bd e9 35 e8 bc
       0.088595375 0.010666886 -0.111795604 -0.028346019
0000e0 e4 db 08 be 37 d2 ba 3d 6e a2 2e be 08 f7 39 bd
       -0.13365132 0.091221265 -0.1705415 -0.045401603
0000f0 86 4d 19 3e 92 d8 c2 3d b7 95 9b 3d 11 46 bc 3d
       0.14970979 0.09513964 0.07596915 0.091930516
000100 01 bf 00 3e 89 2b 0f be 63 d2 0f 3d b6 d3 b0 3d
       0.12572862 -0.13981451 0.03511275 0.08634131
000110 2d 8b 87 3d 31 21 84 bd ea c5 14 be 15 21 b0 bd
       0.066183425 -0.06451643 -0.14528623 -0.0860006
000120 95 af 08 3e 95 70 c9 bd ad 8f fd bd 89 66 80 3c
       0.13348229 -0.098359264 -0.123809196 0.015673893
000130 8a 14 ec 3d 88 24 a4 3d 29 a8 16 3e 7a 67 a0 3c
       0.11527355 0.0801478 0.14712586 0.019580591
000140 8d 94 37 bd 54 81 f7 bd 4b 14 13 be 79 4a 76 3d
       -0.044819403 -0.12085214 -0.1436321 0.060129616
000150 e5 da 0b be 42 e8 8d 3d 7c e9 37 bd 65 ab 0d be
       -0.1365772 0.06929065 -0.044900402 -0.13834913
000160 b1 0b 0b 3d 8b bd 63 3d 40 d5 0e be 9a ab 63 bd
       0.033946697 0.055600684 -0.13948536 -0.055583574
000170 ea 2a de 3d 2e 1c f9 bd 3f e4 0b 3d 12 b1 90 bb
       0.10848029 -0.12163578 0.03415322 -0.0044156397
000180 dd f3 90 3c 4b 30 12 be 51 4a 7f 3d a0 98 1e 3d
       0.017694408 -0.14276235 0.062326733 0.038719773
000190 9c 43 f2 3d dd ad b0 bd d5 ab 99 3c 23 c5 58 bd
       0.11829302 -0.08626912 0.018758694 -0.05292238
0001a0 df 44 cd bd b3 83 cc 3c 31 2e d3 3d 46 81 d7 bd
       -0.10022902 0.024965143 0.10311545 -0.10522704
0001b0 1d 6c 0a be b6 d2 b0 3d af 15 7e bd 6a 60 07 be
       -0.13517804 0.0863394 -0.062032398 -0.13220373
0001c0 23 68 bc bd 18 0e 81 3d 58 7b 9a 3c ca b0 1b be
       -0.0919955 0.06301516 0.018857643 -0.15204158
0001d0 ff 48 54 3d 92 85 0f 3e 3c 0b 59 bc 85 7b 0c be
       0.051827427 0.14015797 -0.013247307 -0.13718994
0001e0 bb 7b b4 3c 66 50 ae bb 08 8a 11 be 47 fb 84 bc
       0.022031656 -0.005319643 -0.14212811 -0.0162331
0001f0 01 fe 71 3d 1e 6c c3 bc 49 e5 0b 3d 69 42 99 bd
       0.059080128 -0.023855265 0.03415421 -0.0748337
000200 ef 2c c4 bd 0a e4 bb 3b e6 bd 9e bd 8e a5 03 3e
       -0.09578883 0.0057339715 -0.07751064 0.12856123
000210 01 94 db bd 15 fe e6 bd d5 23 a0 bb 0f d8 13 3d
       -0.10721589 -0.11278931 -0.004887084 0.03609472
000220 7a 1c 32 3d cd 6d fc bd 17 61 cc bc 37 81 e2 3b
       0.04348419 -0.1232563 -0.02494864 0.0069123763
000230 0b 18 40 3d 0a c1 22 be 1c 1a 10 bb e4 a9 b2 3d
       0.04689793 -0.15893951 -0.0021988219 0.0872381
000240 9f 4e 19 bb ba 53 4a 3d 7d fa a2 3d 2c 66 99 3d
       -0.002339281 0.049396254 0.07957933 0.07490191
000250 be 28 83 bd a8 e9 5b bd 14 f0 c9 3d 61 1a a4 3d
       -0.06404255 -0.05368963 0.098602444 0.08012844
000260 4b 7c 8f 3d 08 9e 37 3d aa 59 0f bd ad 40 d3 bd
       0.07006129 0.044828445 -0.03499762 -0.1031507
000270 7c a9 82 bd b3 44 95 3d 15 ac 9b bc 1d 7e d0 3d
       -0.06379983 0.07288494 -0.019002954 0.10180304
000280 f2 2c fb bd 1f 6d 12 3d 9d 9e 11 be e3 f6 17 bd
       -0.12264432 0.035748597 -0.14220662 -0.037100684
000290 c3 49 9e bc c9 fb fa bc 36 64 2e 3d c1 a2 01 be
       -0.019322282 -0.030637639 0.042576037 -0.12659742
0002a0 f9 11 ce 3d b5 39 d8 bc d6 28 0c 3e 94 90 7b bd
       0.10062022 -0.026394704 0.13687453 -0.061417177
0002b0 16 85 9e 3c d6 8b b1 bd 1e 34 df 3d 43 c6 0c be
       0.01935057 -0.0866925 0.108986124 -0.13747506
0002c0 d6 6b 6d bc 5d 9c 03 be 21 59 dc bd 51 ed bf bd
       -0.014491042 -0.12852617 -0.107591875 -0.093714364
0002d0 00 67 0e 3e 6c 86 0c 3e e8 65 99 3d f8 36 ee bd
       0.13906479 0.13723153 0.0749014 -0.11631578
0002e0 cf 35 b6 bd 37 da 27 bb f0 45 93 bd 10 c7 18 3d
       -0.08896982 -0.0025612244 -0.07191074 0.037299216
0002f0 43 b9 17 be bd 58 a7 3b c7 f6 5a bc 5d 14 ca bd
       -0.14816765 0.005107014 -0.0133645 -0.09867165
000300 2a 4c 0e bd 61 d1 e7 3d 69 4e e0 3d 12 02 b8 bc
       -0.034740604 0.11319233 0.109524556 -0.022461925
000310 05 9a bc bd 69 cf bb 3d d7 ea 02 bd c0 a5 fe 3d
       -0.092090644 0.0917042 -0.031962242 0.12433958
000320 c8 79 0d be c2 f2 ae 3a a7 1f 61 3d 3b 82 23 bd
       -0.13815987 0.0013347494 0.054961827 -0.03991912
000330 fc 7a 51 3d 81 f7 c5 bd ba 71 24 bd 84 c3 fa 3d
       0.051142678 -0.09666348 -0.04014752 0.12244323
000340 d7 61 f6 3d c2 fc c8 3d 34 0f 22 be c5 d3 54 bd
       0.1203038 0.09813835 -0.15826112 -0.05195977
000350 66 4b df 3d 70 51 86 3c 1a b4 02 be e4 ee 06 3e
       0.10903053 0.016396254 -0.12764016 0.13177067
000360 31 61 11 3e e6 44 d2 bd 7a 65 d2 bc 4a 21 7b 3b
       0.14197232 -0.102670476 -0.025683153 0.0038319402
000370 84 7b 6f bd f0 8b 70 bc 12 e5 a2 bc 22 cd 5b 3d
       -0.058467403 -0.014681801 -0.01988462 0.053662427
000380 ff 16 3a 3d 63 aa 9e bd b3 dc fb bd 01 71 ad bc
       0.045432087 -0.077473424 -0.122979544 -0.021172049
000390 40 af 7d bc a3 fb 06 3e 8c 94 5e 3d bb b1 01 be
       -0.015483677 0.1318193 0.054340884 -0.12665455
0003a0 cb cf 0c bd ab b0 fb bd ea f9 24 bd 77 f1 0f bd
       -0.034377854 -0.12289556 -0.0402774 -0.03514239
0003b0 e0 82 0c bd 82 27 0e 3e fe 7b db 3c 07 96 bd 3c
       -0.0343045 0.13882259 0.026792523 0.023142828
0003c0 9c c7 1c 3e 09 00 1f bd 63 7b f5 3c 6c 29 11 3e
       0.1531052 -0.038818393 0.029966062 0.14175957
0003d0 4b 58 f4 bd cd e7 31 3e 99 a9 f2 3c 6a 0d 85 3d
       -0.11930903 0.17373581 0.029621886 0.06496699
0003e0 77 01 d9 bd bd fe 6c 3d 73 8a bc bd f3 f3 8b bd
       -0.105959825 0.057860125 -0.092060946 -0.06833639
0003f0 28 8f f4 bd cc 16 ab 3c 39 bd fd bc 62 fe 1f 3c
       -0.119413674 0.020884894 -0.030974017 0.009765239

fc1.bias f4 [64]
000000 2a f7 bc 3d 66 fe 11 be 33 7a 75 bd 58 f2 6e 3d
       0.0922683 -0.14257202 -0.05993099 0.058336586
000010 87 d0 ec 3d b9 4f 0f be 9c 66 5b bd df 11 06 bd
       0.11563211 -0.13995256 -0.053564653 -0.032731887
000020 19 fa aa 3d f2 0c c1 bc 9a bd c2 3d cb 4e 0c be
       0.083484836 -0.023565743 0.0950882 -0.13701932
000030 29 a4 97 3d bd 8a fb bd d8 dd f4 bc c5 5e 63 3d
       0.07404358 -0.122823216 -0.02989094 0.0555103
000040 95 82 ad 3d a1 a3 2b 3d 26 19 b3 bd c7 16 e5 3d
       0.08472172 0.041904096 -0.08745031 0.11185985
000050 c2 0e 11 be 89 f8 04 3e 84 d1 22 3d bd b2 06 bd
       -0.14165786 0.12985434 0.03975059 -0.0328853
000060 bf 33 13 3e 2d 97 ed 3d 7b 05 f7 bd b9 b8 86 bd
       0.14375208 0.116011 -0.12061592 -0.06578202
000070 54 ae 68 3d de 56 9b 3d f2 30 05 be 8c 4a b9 bb
       0.056806877 0.07584928 -0.13006952 -0.0056546386
000080 a4 cf bf 3d a9 56 ea 3d 06 2f 12 be 8d 1e 65 bd
       0.09365776 0.1144231 -0.1427575 -0.05593734
000090 d9 c6 3f 3d 6c 57 af 3d 04 db cf bc c5 20 08 3c
       0.046820495 0.08561596 -0.02537299 0.008308594
0000a0 17 be 42 3d 6c ad 17 be e5 0b d3 bd 90 87 81 bc
       0.047544565 -0.14812249 -0.10305003 -0.015811712
0000b0 96 ac fb bd 56 39 4e 3c b0 df d3 bd 7c 75 97 bd
       -0.122887775 0.012586912 -0.103453994 -0.07395455
0000c0 5a cd 91 3d 0f e5 7f bd c1 0d e9 3a 70 43 49 bd
       0.07119246 -0.062474307 0.0017780588 -0.04913658
0000d0 c9 13 85 bd 10 a6 19 bd f4 89 b3 bc 3e b1 9b bd
       -0.06497914 -0.037511885 -0.021916367 -0.07602166
0000e0 d6 1b e7 3d 69 96 9e 3c dc 71 10 3e 18 b1 00 3e
       0.11284606 0.01935883 0.14105934 0.12567556
0000f0 f3 f6 e5 bd 01 71 05 3e 9c 7c 9e bd b9 ee d4 bd
       -0.112287425 0.13031389 -0.07738611 -0.10397095

fc2.weight f4 [32, 64]
000000 2e 1d 2f bc 49 49 f9 bc e4 44 cf 3d 3d 49 82 3c
       -0.010688109 -0.030430453 0.10120562 0.015904063
000010 d8 f6 69 bd 49 25 73 bd 7f 14 fb 3d 03 0c 44 3c
       -0.057120174 -0.05936173 0.12259769 0.011965754
000020 0b 56 02 be 2d 38 a7 bc cb 48 08 3d ad 5c 5c 3d
       -0.12728135 -0.020412529 0.033272546 0.05379932
000030 15 90 9e 3d 55 a4 06 3d f3 9b 41 bc 92 ed e0 bd
       0.07742325 0.032871563 -0.011816966 -0.10982813
000040 ed 14 a4 bd d0 b3 ce bd 6f 92 5c 3d 11 6e b3 3d
       -0.08011804 -0.1009289 0.053850587 0.08761228
000050 43 8f fa bd 78 ca f9 3b 0f 76 af 3c d4 8f b3 3d
       -0.12234356 0.007623013 0.0214186 0.087676674
000060 f3 0c 00 be 07 19 5f bd 46 77 10 be a3 9c 91 bd
       -0.1250494 -0.054467227 -0.14107999 -0.07109954
000070 26 76 f9 3c a4 76 42 bc 98 1e c6 3d 9f dd 8b 3d
       0.030451845 -0.011869106 0.09673804 0.0682938
000080 98 68 60 3b bd 5b 91 bd 09 3d 38 bd ea c9 fb bd
       0.003424203 -0.07097576 -0.044980083 -0.122943714
000090 c1 28 52 3d 83 f0 3b bd 86 69 77 bd 38 2e a7 3d
       0.051308397 -0.045883667 -0.06040337 0.081631124
0000a0 14 ee 82 3d a1 d2 ba bc be 6c 21 bc 8e 17 ae 3c
       0.06393066 -0.022805514 -0.009852586 0.021251466
0000b0 a5 56 e9 bd 16 50 06 ba 8a cb b8 3d ba 74 c2 3d
       -0.11393479 -0.0005123628 0.09023197 0.0949492
0000c0 0e 94 cb bd 54 e5 f0 3b 97 b5 fd 3d 93 08 55 bb
       -0.099403486 0.007351557 0.12388151 -0.0032506331
0000d0 6d ea b2 bd ff b5 0d be 25 b1 e4 3d c5 7e cb 3d
       -0.087361194 -0.13838957 0.111666 0.09936289
0000e0 85 69 d6 3d ea 55 f9 bd 35 72 cc bb 99 87 be bd
       0.10469345 -0.1217459 -0.0062392005 -0.09303207
0000f0 07 80 3e bd f4 19 4a 3d d5 13 de bd 93 9b 32 bd
       -0.046508815 0.049341157 -0.108436264 -0.0436054
000100 58 c5 7c 3d c5 53 e3 3d 3a 02 95 3a 6b 34 fb 3d
       0.06171164 0.11099962 0.0011368461 0.12265857
000110 d2 a0 d2 bc ad e0 ff 3d eb d0 cd ba 11 89 e2 bd
       -0.02571145 0.124940254 -0.0015702521 -0.110612996
000120 45 2c 30 3d 51 45 f0 3c 2f cd 9f 3c 35 0b 85 3d
       0.04301097 0.029329928 0.019507019 0.06496278
000130 76 13 f5 3d 1f fc a2 3d f0 15 2d bd 6d c4 e7 bc
       0.119666025 0.079582445 -0.04225725 -0.028291905
000140 e0 1e 01 3d 53 e6 f7 bc f3 31 4c bd 3b 6c e1 3b
       0.031523585 -0.030261194 -0.049852323 0.006879357
000150 d9 0d 9a 3d 7a 0b f8 ba b3 17 0e 3d 6c 00 42 bc
       0.075221725 -0.0018924319 0.03469057 -0.011840921
000160 98 8e 36 3d 50 fd 9f bd 4e e3 aa bd de 88 fa bd
       0.04456958 -0.078119874 -0.08344136 -0.122331366
000170 e7 d5 e2 bd 02 2e 82 3d 1e f5 56 bd b8 3f e7 bd
       -0.11075955 0.063564315 -0.052479856 -0.1129145
000180 97 a8 9f 3d 65 32 8f bd c4 e3 d1 3d 74 3b 0d bd
       0.07795828 -0.06992034 0.10248521 -0.034480527
000190 55 a6 db bd e5 f3 f9 3c c6 6b ea 3d 98 bc 84 3c
       -0.10725085 0.030511806 0.114463374 0.01620321
0001a0 24 f3 82 bd 27 b3 8b bc 76 09 c1 bd 05 78 b1 3d
       -0.06394032 -0.0170532 -0.09425633 0.0866547
0001b0 45 9b ca 3d 42 17 c4 bb ba 63 00 be 3d 90 39 bd
       0.098928966 -0.005984218 -0.12538043 -0.045303572
0001c0 1d 7b 17 bb a0 ac 53 3d d4 e9 a8 3d 97 0e d2 bd
       -0.0023114153 0.0516783 0.08247724 -0.10256689
0001d0 de d2 e0 bd d3 10 eb bd 4a 68 bd 3d ed 65 98 bc
       -0.1097772 -0.11477818 0.09248407 -0.01860329
0001e0 44 5d 9b bc f3 95 b2 bd 73 3e 44 bd 14 a2 84 3d
       -0.018965371 -0.08720007 -0.04791112 0.064762264
0001f0 c6 ae 9d 3a 69 5a d4 bd a8 18 e5 bc 95 56 80 3d
       0.0012030236 -0.10368807 -0.027965859 0.06266514
000200 f1 42 e0 bd c1 00 77 bd d3 44 e1 bd 13 77 80 3c
       -0.10950268 -0.060303453 -0.10999455 0.015681779
000210 f1 12 33 bc e0 c1 12 bd 53 e1 4f 3b 09 67 9e bc
       -0.010929809 -0.035829425 0.0031719997 -0.01933624
000220 e0 e0 d7 3d 42 d4 7e 3d 11 20 98 bd b4 33 24 bd
       0.105409384 0.062214144 -0.07427991 -0.04008837
000230 ba aa ed bb e9 d0 29 bd 62 98 0d bc cf 91 04 3e
       -0.007253018 -0.041458998 -0.008642288 0.12946247
000240 7e 2b 50 bd f4 84 04 bd 59 04 4a bd 0e 8d e4 3d
       -0.050822727 -0.032353356 -0.049320552 0.111597165
000250 b6 ba 6d bd 3c ac e5 3d 8d 26 b5 bd 56 a9 b2 3c
       -0.05803939 0.11214492 -0.088452436 0.021809261
000260 31 4d fd 3b 26 00 8a 3c db b9 c2 bd 50 60 99 bc
       0.007730149 0.016845774 -0.09508105 -0.018722683
000270 07 b3 7e 3d a9 54 b4 3d 05 9d e5 3d 62 af 0d 3e
       0.062182453 0.0880521 0.1121159 0.13836434
000280 d7 d8 bd bd 86 30 c8 3d 99 4a 84 3d 9a 65 60 3d
       -0.092698745 0.0977488 0.06459541 0.054784395
000290 ff 31 62 bd 1c b9 92 3d cc 65 3c bc 17 9f b9 3d
       -0.05522346 0.07164213 -0.01149888 0.09063547
0002a0 24 eb bf 3c f2 ed b8 3d b6 83 04 be 44 e1 19 bd
       0.023427553 0.090297595 -0.12940869 -0.037568346
0002b0 2e 81 df bd 0f 1f e6 bd 86 80 d2 3d 3c 52 01 3d
       -0.10913311 -0.11236393 0.1027842 0.031572565
0002c0 53 43 ad bd e1 8c bb bd c2 8f 50 bd 14 00 d4 bc
       -0.08460107 -0.0915773 -0.050918348 -0.025878944
0002d0 ef 54 9a bd 39 54 e3 bc 1c b9 9d 3d 4e 2f 30 bd
       -0.07535731 -0.027750121 0.077013224 -0.043013863
0002e0 df 1a b2 bd 62 1e 91 3b b5 6b f2 3d 58 2c 7f bd
       -0.086965315 0.0044286707 0.1183695 -0.06229815
0002f0 71 17 7f bd f3 93 59 3c e9 d5 17 bd e1 1f 56 3c
       -0.062278215 0.013279903 -0.037069235 0.013069124
000300 d2 d5 68 bd 9c 3a 39 bd 3d 4d 78 bd 68 45 9b 3d
       -0.05684454 -0.04522191 -0.060620535 0.075815976
000310 d8 08 92 3d d8 08 ca bd 19 69 e9 3c 46 54 a0 bd
       0.07130593 -0.09864968 0.028492497 -0.07828574
000320 dc e1 fd 3c 76 c6 9f 3d 27 af 90 3d 07 6a a7 3d
       0.030991487 0.07801525 0.07064658 0.0817452
000330 4a 77 83 3d 1d 0f 95 bd 7b ca a2 3d a8 02 e2 3d
       0.06419237 -0.07278273 0.07948776 0.11035663
000340 96 74 3e bd 66 10 8e 3d 54 53 71 3d ac bf d7 3d
       -0.046497904 0.069367215 0.05891736 0.105346054
000350 44 3a a7 bd f6 5a 39 bc 27 05 04 3d 28 c1 ae 3d
       -0.0816541 -0.011313191 0.032231476 0.085329354
000360 63 36 bf 3d e7 dc 4c 3c 47 e5 e6 bd b6 1a 08 3d
       0.09336545 0.012503839 -0.112742 0.0332286
000370 e6 e0 61 3d cf fa 1c bc 80 5a ab 3d cb 9f 40 3d
       0.05514612 -0.009581282 0.08366871 0.04702739
000380 73 2a 8f 3d b5 c1 3b 3d fd a2 c8 bc 2a b3 52 3d
       0.069905184 0.04583903 -0.024491781 0.051440395
000390 b7 ae 06 3e 15 a9 a1 3c 0b 13 85 bd b7 12 28 3b
       0.13152586 0.019733945 -0.06497773 0.002564592
0003a0 5e a4 f5 3b 72 3f e4 3a 0e c1 c4 bd 11 f2 68 bd
       0.0074964007 0.0017413928 -0.09607135 -0.056871478
0003b0 9f 3b b9 bd 9b 93 9a 3d 5f 2e 01 bd 8a ad 32 3d
       -0.09044575 0.07547685 -0.031538364 0.04362253
0003c0 07 05 ed bd 7b 07 8d bd 77 49 ee bd ba 93 99 bd
       -0.115732245 -0.068861924 -0.11635106 -0.0749888
0003d0 ba 49 ca 3c ad c9 97 3d 7d d9 c1 bd 08 37 d1 3d
       0.024693359 0.074115135 -0.09465311 0.102155745
0003e0 22 23 ce 3c 7a f8 bf 3d 4f 8f d8 3c ab bb ec ba
       0.025163237 0.09373565 0.026435522 -0.00180613
0003f0 59 1a 64 bd ba 32 2d 3c 19 23 31 3c 5a 40 27 3b
       -0.05568919 0.010571176 0.010811591 0.0025520534

fc2.bias f4 [32]
000000 b9 55 29 bd 7b ba 4d 3c 64 f2 ba bc 58 36 fc 3a
       -0.041341517 0.012556667 -0.022820659 0.001924227
000010 e1 b0 59 bd 7f 59 be bd 23 b5 03 bd a3 9f ca bd
       -0.0531472 -0.09294414 -0.032155167 -0.098937295
000020 4c ee 6c 3d fa 6f bb 3d b0 ee 49 bd 11 27 44 bd
       0.057844445 0.09152217 -0.049299896 -0.04788882
000030 5e 82 85 3d 08 e0 ef 3d 3a 08 d0 3d 90 12 ed 3c
       0.06519006 0.117126524 0.10157819 0.028939515
000040 b1 0f 00 3d ea 14 46 bb 1c b1 5e 3d 93 0e df 3d
       0.031264964 -0.0030224868 0.054368123 0.10891452
000050 51 ff c5 3d c6 91 7e bd 38 a3 f1 3d 8a 4a ac bd
       0.09667838 -0.06215074 0.1179871 -0.08412655
000060 a9 e9 cf 3c 20 15 8c 3d 23 5e 25 bd 54 18 d6 bd
       0.025379973 0.06839967 -0.04037298 -0.10453859
000070 62 25 72 bd 60 05 ec 3d bd a2 d7 3d 75 71 08 be
       -0.059117682 0.11524463 0.10529087 -0.1332453

fc3.weight f4 [16, 32]
000000 38 22 af bd 8d a8 20 be 7b 99 81 3d 16 32 2d 3d
       -0.085514486 -0.15689297 0.06328102 0.042284094
000010 79 59 d1 3d 34 17 bc 3d a3 17 00 3e 8d 4e 1f be
       0.10222144 0.09184113 0.12509017 -0.15557308
000020 ab 0a e3 3d d0 7b 24 bd 37 65 7f bd 2f 6c 8a 3d
       0.11086019 -0.04015714 -0.062352385 0.06758916
000030 8e 91 2b be 42 9d 0d bd ca 12 c9 bd d4 d7 fc bc
       -0.16754743 -0.0345738 -0.09818037 -0.030864634
000040 8f c6 0c 3e 94 cf 01 bd ea 1d 84 3d f4 d3 1b 3e
       0.13747619 -0.031692103 0.06451018 0.15217572
000050 7d f6 03 3d d0 bd 9c bd 53 e0 93 3d ca 13 3d bc
       0.03221749 -0.07653391 0.07220521 -0.011540363
000060 7e f4 01 be 85 cb 07 3d a2 90 aa bd d2 21 c0 3d
       -0.12690923 0.033153076 -0.08328368 0.09381451
000070 98 ff 18 be e3 3c 10 be ca e3 e5 bd 49 cf 1a 3c
       -0.14941251 -0.14085726 -0.11225088 0.009448835
000080 53 08 1e bd 03 89 f3 3d 28 d1 b9 3d 1f 04 ad bd
       -0.038582157 0.11891367 0.090730965 -0.08448052
000090 40 9e bb bc f1 80 23 3d bb 6a 82 bd 3b e3 e2 bd
       -0.022902608 0.03991789 -0.063680135 -0.11078497
0000a0 78 e9 05 3e 7d 32 75 bd 17 88 19 be d6 a6 2a 3c
       0.13077343 -0.059862603 -0.1499332 0.010415753
0000b0 dc 8c 18 3d 18 80 d6 3c d2 e0 d0 bd bd 06 94 bd
       0.03724371 0.026184127 -0.10199131 -0.07227848
0000c0 6f 9b b0 bd f3 91 22 3d 4f a5 f2 3b 8f 84 11 3e
       -0.086233966 0.03968997 0.00740496 0.14210723
0000d0 18 c6 f3 bd b3 25 17 be 0b e7 39 bd f5 0a 0f 3e
       -0.11903018 -0.14760475 -0.045386355 0.13969024
0000e0 53 68 13 3e 1d 81 21 bd 2b a2 e6 3d a0 93 5c 3d
       0.14395265 -0.039429773 0.112614 0.053851724
0000f0 e0 14 83 3d 06 ba d1 bc a4 8c ee bd 6e ed fd bd
       0.06400466 -0.025601398 -0.11647919 -0.12398802
000100 4f b7 09 3e 92 0d b1 3d 1e 07 20 3e ff 48 cf bc
       0.13448833 0.086451665 0.15627715 -0.025303362
000110 95 7a 88 3d 5a 1b 0d 3e 95 01 09 3c 8c df 69 3b
       0.06664006 0.13779965 0.008362194 0.0035686223
000120 c2 25 19 be 8d 38 b8 bd ee d0 1c bd eb f0 fa bc
       -0.1495581 -0.08995161 -0.03828519 -0.030632457
000130 05 c4 6d bd ea 82 8a 3d 05 fd 30 3d d3 d1 32 3d
       -0.058048267 0.06763251 0.04321005 0.043657135
000140 74 3d 10 bd 5a 8b b8 bd a1 1f 2f be 62 92 91 bd
       -0.035214856 -0.09010954 -0.17101909 -0.071079984
000150 3b fe 58 3d 7d 6b 9d 3c 87 0c b9 bd 3c 52 05 3e
       0.052976828 0.019216293 -0.090355925 0.13019651
000160 c6 21 a8 3d f1 9b 08 3e 73 b5 b6 3d 4d b9 47 3d
       0.08209567 0.13340737 0.089213274 0.0487607
000170 f2 e3 ea 3d 0f 08 07 be bc 21 2d be de b1 41 3c
       0.11469258 -0.13186668 -0.169074 0.011822192
000180 45 d9 bf bd 9c b5 0d 3b 2c 87 a4 bd 8b 88 09 be
       -0.09367613 0.002162314 -0.080335945 -0.13430993
000190 ec 75 ce 3c b5 77 8a bd 1d 7b 38 be 29 60 2a 3e
       0.025202714 -0.067611136 -0.18015714 0.16638245
0001a0 c9 60 8f 3d 67 4b 8d bd dc b9 2d 3e a5 73 0d bd
       0.07000882 -0.068991475 0.16965431 -0.034534115
0001b0 b6 bf 40 3e 89 57 e8 3d 80 fa f8 3d d6 60 fd 3d
       0.18823132 0.11344821 0.12157154 0.123719856
0001c0 15 51 00 ba 34 f8 15 bd bb 79 d1 bd f3 d3 85 3d
       -0.00048948947 -0.036613658 -0.10228296 0.06534567
0001d0 ca 28 fa bd 06 7f 06 3e 6f 46 b9 3d 45 5f dc 3d
       -0.12214811 0.13134393 0.09046637 0.10760359
0001e0 de ab 16 3e 4c d7 14 3d 46 23 d4 bc 7a d1 1f 3e
       0.14714 0.036338136 -0.025895726 0.15607253
0001f0 43 12 bb 3c 89 75 29 bc 26 9e 0a be 8d da 83 bd
       0.022835856 -0.010342964 -0.13536891 -0.0643817
000200 b2 28 d8 bd 50 b0 ca 3c 66 21 3c 3e 68 89 fc bd
       -0.10554637 0.024742275 0.18372115 -0.12330896
000210 79 29 66 bc ca 0e 36 bd 09 ec 27 be 5c 14 e3 bd
       -0.014047974 -0.044447698 -0.16398634 -0.110878676
000220 0d 0d 0b 3e f0 3b 9e bd d5 2d e4 bd 85 48 2d 3e
       0.13579197 -0.07726276 -0.11141554 0.16922195
000230 bf 7a ca bc 8d b4 eb 3c 14 31 e5 bd f4 d5 87 bc
       -0.024716733 0.028772617 -0.111910015 -0.016581513
000240 f0 54 cd bc 65 e5 da 3d 03 6a 22 3e 23 28 80 b9
       -0.025064915 0.10688285 0.15860753 -0.00024443967
000250 a3 47 e8 bd 46 f5 34 3e 2d 09 08 3e 91 a1 ee 3c
       -0.113417886 0.1767169 0.1328475 0.029129775
000260 28 56 bd 3d 61 f4 a0 3c 64 1f 8f 3d 84 0f 07 3e
       0.092449486 0.019647779 0.06988409 0.13189512
000270 d7 2d dd 3a ba ed 5b bd 01 db b1 bb e6 69 80 3d
       0.0016874623 -0.05369351 -0.0054277186 0.062701985
000280 d9 01 0a 3d 81 25 20 be cb e9 1e 3e e3 e6 a2 bd
       0.03369317 -0.15639307 0.15518872 -0.079541944
000290 24 22 f1 3d da 81 79 3d c2 14 46 be 08 b6 30 bd
       0.1177409 0.06091485 -0.19343856 -0.04314235
0002a0 9a 66 97 bd f8 b3 11 be 10 75 01 3e 14 16 2d 3e
       -0.073926166 -0.14228809 0.12642312 0.16902953
0002b0 c6 b1 9b 3d 04 2e 1b be ea 70 c8 3d 89 77 64 bd
       0.07602267 -0.15154272 0.09787162 -0.05577806
0002c0 94 48 43 be e2 ac 72 bd f9 0b 0d be 83 ab e7 bd
       -0.19070655 -0.059246905 -0.13774098 -0.1131201
0002d0 2a 4d 4e 3c 16 d4 1e 3d d7 fe 4f 3d 68 06 c4 bd
       0.0125916395 0.03877648 0.050780144 -0.095715344
0002e0 34 e4 a9 bc 71 82 79 bd e4 ff 27 3e 0b 0e 29 3c
       -0.020738699 -0.060915414 0.16406208 0.0103182895
0002f0 0b 5c 7c 3d 43 7a 0f be 31 49 e8 3d e1 1f 8b bd
       0.061611217 -0.14011483 0.11342085 -0.0679319
000300 61 d6 bb bd 7f 4c c4 bd 0e fa 2b be fc 1a 19 3e
       -0.09171749 -0.09584903 -0.16794607 0.149517
000310 bc 9f 04 be 7a 10 60 3c 2b fa cd bd 6b c1 db bd
       -0.12951559 0.013675803 -0.100574814 -0.10730251
000320 25 30 dd bd c1 03 1e 3d 11 31 18 be 35 1c 2c bd
       -0.108001985 0.0385778 -0.14862467 -0.042019088
000330 ad 06 01 3d e8 47 72 bc 1a 9d 48 be 6b 64 88 bd
       0.031500507 -0.014787652 -0.1959118 -0.06659778
000340 84 00 d8 3d 98 95 e1 bd 2d f4 38 be e5 58 88 bd
       0.10546973 -0.11014861 -0.18061896 -0.0665758
000350 81 b8 18 3e c6 24 c9 bd 4d d0 5d bd 53 57 c9 3d
       0.14914133 -0.09821467 -0.05415373 0.09831109
000360 a7 97 64 3d e6 87 15 be 3a 17 c5 3c c0 b8 3f bd
       0.05580869 -0.14602622 0.024058927 -0.04680705
000370 71 90 06 3e 3f 00 08 be 34 2b 7f 3d 58 ad e3 3d
       0.13141038 -0.13281344 0.06229706 0.11117047
000380 b1 5e 98 3d e7 3f 01 be 3b 67 9e bd 89 0f ae bd
       0.07439936 -0.12622033 -0.077345334 -0.08499057
000390 d1 66 57 bd a3 ee 24 3e f4 81 22 3d 9a 65 12 3e
       -0.052588288 0.16106658 0.039674714 0.1429657
0003a0 1c 86 7b 3c a5 2a b2 bd 28 74 78 3d 3c e5 ec bd
       0.015351798 -0.0869954 0.06065765 -0.115671605
0003b0 28 0d b9 bd 8a 00 da bd 73 60 e0 bd af 5c 9e bd
       -0.090357125 -0.10644634 -0.10955896 -0.07732522
0003c0 d0 19 c4 bb 3b 7e 3e 3e c0 60 00 3e e4 75 ba 3d
       -0.0059845224 0.1860284 0.12536907 0.09104517
0003d0 ee fc 3f 3d d2 7c 51 3d 41 38 dd 3d b8 d2 0f bd
       0.046872072 0.05114443 0.10801745 -0.035113066
0003e0 12 af ef 3d f6 76 43 3d a7 c7 28 bb 9b c8 fb 3d
       0.11703314 0.047720872 -0.0025753768 0.12294122
0003f0 6b 33 1f 3d 88 48 36 be 31 81 04 3e cd 18 e1 bd
       0.038867395 -0.17801106 0.12939908 -0.109910585

fc3.bias f4 [16]
000000 51 2c 8e bd 18 59 22 3e b2 56 1a be 71 85 1b be
       -0.069420464 0.15854299 -0.15072134 -0.15187623
000010 b3 06 d2 bc 81 34 c8 3c 8c 37 8c 3d ee 3a a9 3d
       -0.02563796 0.024439098 0.06846532 0.08263193
000020 29 31 2a 3d 16 64 2c 3d f2 11 0b bd 69 4e 2f bd
       0.04155079 0.042087637 -0.03395266 -0.042799387
000030 d9 ef 1e be e9 64 5c 3d 84 76 8a 3d 5c 2b 16 bd
       -0.15521182 0.053807173 0.06760886 -0.036662444

fc4.weight f4 [1, 16]
000000 be ad 44 be 2f cd 76 be a6 17 24 bd c5 2c 10 3d
       -0.19206902 -0.24101709 -0.040061615 0.035198946
000010 05 7f 6e 3d d9 4f f5 3d 8b 9f e3 3d d9 d3 69 be
       0.058226604 0.1197812 0.11114415 -0.2283472
000020 da dd d9 3d 80 ec 74 be e0 32 1e be 0a 1a a3 3d
       0.10638018 -0.23918343 -0.15449095 0.07963951
000030 6a a2 5c be e1 7a 07 3d 7e de 3e be 34 37 8d 3d
       -0.21546331 0.03307617 -0.18639562 0.06895295
