bootstrapping_connect_four_heuristic.pth (torch, 67100 bytes, 7 tensors)

fc1.weight f4 [128, 42]
0.037908483 -0.0979243 -0.09551046 0.09072269 0.038967356 0.05693673 -0.01775109 -0.07063037
-0.08769132 0.03626086 0.18251057 -0.23516384 0.12537672 0.0053640553 0.041929748 0.11700166
0.12036998 -0.03241216 0.11267837 -0.057302658 -0.090403564 -0.062323734 -0.15191731 -0.0993795
0.07831091 -0.14189517 -0.061735693 0.040599216 -0.14074399 0.033233374 0.08733751 -0.01694844
-0.1010547 -0.024734193 0.024745042 0.10375016 0.07915304 0.049396824 0.025641542 -0.1318694
-0.22114073 -0.015372164 -0.054392304 0.0152222095 0.0045779254 -0.073226854 -0.081642814 -0.122316636
-0.028551392 -0.08802319 -0.042443324 0.022651996 0.29077196 0.090339676 0.12965415 0.006827414
0.11972294 0.045309566 0.033665564 -0.021289356 0.017453365 -0.025720553 -0.12363292 0.0059306864
0.11554551 -0.06903686 -0.038618144 0.074311785 0.13548803 0.14524373 -0.062230725 -0.04323867
0.08440602 -0.13453957 0.07384668 0.105566956 -0.08851517 0.07905576 -0.11795157 0.03137648
0.06132098 0.031229584 0.04280504 0.07064798 -0.17283496 0.0059629427 0.072501615 -0.015213422
0.06799576 -0.03154791 -0.09552824 -0.092884496 0.0004934745 0.07193815 0.034747403 0.045421343
-0.12388526 -0.058999173 -0.026944028 -0.1286246 0.1223315 -0.0029289771 -0.20804316 0.093662806
0.02533977 -0.12067787 -0.16024192 0.05926023 -0.007595604 0.086139075 -0.108192384 0.119111076
0.04098434 -0.1859527 0.0391074 -0.011298691 -0.07572547 -0.06829568 0.073245585 -0.0016697086
-0.15946573 -0.17269778 -0.050205532 0.0008933494 0.11803925 0.015931813 -0.02033522 -0.27622047
0.14425507 -0.07469388 0.101463154 -0.02611599 -0.025140302 -0.093579896 -0.0821866 -0.039432857
0.04395496 -0.1227897 -0.10438989 -0.0066519612 -0.12775911 -0.016548501 -0.10577357 0.16574328
-0.1558569 -0.026695061 0.0893778 0.078832634 0.029724449 0.017940737 0.0009230615 0.15173312
-0.12618804 0.19264205 -0.12712438 -0.14380983 0.011350757 0.028900543 -0.020645248 0.08520283
-0.03187096 -0.025437193 0.0990204 0.18188968 -0.046271857 -0.066191174 -0.08361654 -0.056985337
-0.10863603 -0.09454336 -0.11247872 0.1143218 -0.1405144 6.360124e-05 -0.09050279 0.11211612
-0.0069630803 0.043835804 0.025977286 0.011180233 0.021128692 -0.00062517275 -0.069248654 0.016915271
0.059783526 0.08843587 0.038387995 -0.00082996837 -0.007711699 0.11942971 0.02939138 0.22601162
0.13783419 0.14973477 -0.025852721 0.100622825 -0.12729052 -0.1825788 0.00039200624 0.084000856
-0.032057352 0.09683477 -0.03555415 0.15028024 0.16199857 0.03223836 0.058548342 -0.027473697
-0.11850276 0.03594499 0.035765115 -0.197421 0.002681505 0.046037626 0.007076229 -0.036573943
-0.24929866 -0.11958042 -0.1922201 -0.09602713 0.115277976 0.061237097 -0.06409076 -0.16006267
0.106657155 -0.08983566 -0.058955356 -0.011569549 -0.08712001 0.053570643 0.12495478 -0.13805069
-0.036807913 -0.14846882 -0.07355172 0.12047317 0.0064414158 -0.12058873 -0.12963425 -0.12932579
-0.028055891 0.0063457596 0.09330926 -0.05873476 0.02280233 -0.13630496 0.100364394 -0.12331335
-0.078403905 0.10351769 -0.0029213522 -0.12232445 -0.05763114 0.06550026 -0.022892384 -0.2097976
00000000: ed45 1b3d 898c c8bd fd9a c3bd d1cc b93d
00000010: 3c9c 1f3d 7d36 693d bc6a 91bc a8a6 90bd
00000020: 8297 b3bd 4486 143d 0de4 3a3e cace 70be
00000030: c162 003e f5c4 af3b 87be 2b3d 919e ef3d
00000040: 8984 f63d 9dc2 04bd ebc3 e63d 31b6 6abd
00000050: 8125 b9bd 2c47 7fbd 3690 1bbe 7b87 cbbd
00000060: 7861 a03d f84c 11be 91de 7cbd 5d4b 263d
00000070: 311f 10be b81f 083d 02de b23d 74d7 8abc
00000080: c4f5 cebd 5d9f cabc 1db6 ca3c f77a d43d
00000090: fd1a a23d 5354 4a3d 360e d23c c608 07be
000000a0: b772 62be 87db 7bbc 77ca 5ebd 9366 793c
000000b0: 6c02 963b f6f7 95bd 5934 a7bd 2581 fabd
000000c0: 9ce4 e9bc 8145 b4bd 0dd9 2dbd ae90 b93c
000000d0: 10e0 943e 0204 b93d 0fc4 043e 80b8 df3b
000000e0: 4d31 f53d 8696 393d e7e4 093d 0467 aebc
000000f0: 5cfa 8e3c e9b3 d2bc 4233 fdbd 3456 c23b
00000100: 20a3 ec3d 3263 8dbd 0f2e 1ebd c730 983d
00000110: 60bd 0a3e c6ba 143e a5e5 7ebd 081b 31bd
00000120: 10dd ac3d bec4 09be ee3c 973d 7d33 d83d
00000130: 7147 b5bd fce7 a13d 9890 f1bd a084 003d
00000140: b52b 7b3d 2fd5 ff3c 5654 2f3d e3af 903d
00000150: a6fb 30be ca64 c33b ba7b 943d b741 79bc
00000160: 5c41 8b3d 6238 01bd 4fa4 c3bd 3a3a bebd
00000170: 835c 013a 4f54 933d 4b53 0e3d bb0b 3a3d
00000180: 8eb7 fdbd 1ea9 71bd b9b9 dcbc 2bb6 03be
00000190: f088 fa3d 15f4 3fbb 4409 55be 49d2 bf3d
000001a0: 5995 cf3c f625 f7bd 7516 24be dbba 723d
000001b0: 8be4 f8bb af69 b03d f893 ddbd 82f0 f33d
000001c0: 32df 273d 626a 3ebe 152f 203d 251e 39bc
000001d0: f515 9bbd 9bde 8bbd c801 963d 20da daba
000001e0: fc4a 23be b0d7 30be 51a4 4dbd aa2f 6a3a
000001f0: 90be f13d 6f83 823c 0c96 a6bc c56c 8dbe
00000200: 9ab7 133e 1bf9 98bd eacb cf3d 33f1 d5bc
00000210: 09f3 cdbc d1a6 bfbd 7351 a8bd 5984 21bd
00000220: 1e0a 343d 2b79 fbbd 5eca d5bd b2f8 d9bb
00000230: 49d3 02be b990 87bc d09f d8bd 9bb8 293e
00000240: f498 1fbe 9aaf dabc b50b b73d 0173 a13d
00000250: b080 f33c 74f8 923c 9cf9 713a ed5f 1b3e
00000260: 7037 01be f543 453e e52c 02be e242 13be
00000270: 87f8 393c d5c0 ec3c 3920 a9bc d27e ae3d
00000280: 208b 02bd a961 d0bc 35cb ca3d 4a41 3a3e
00000290: 8f87 3dbd 3d8f 87bd 263f abbd 7569 69bd
000002a0: 917c debd f39f c1bd 3e5b e6bd 8c21 ea3d
000002b0: 02e3 0fbe a861 8538 8759 b9bd 239d e53d
000002c0: 8d2a e4bb 2c8d 333d 51ce d43c 4c2d 373c
000002d0: 1416 ad3c a2e2 23ba 3dd2 8dbd e591 8a3c
000002e0: 92df 743d de1d b53d bb3c 1d3d 3c92 59ba
000002f0: 6cb2 fcbb 9097 f43d 31c6 f03c 976f 673e
00000300: 6824 0d3e 1254 193e 16c9 d3bc 5713 ce3d
00000310: 7258 02be f0f5 3abe 3086 cd39 a408 ac3d
00000320: 924e 03bd 4f51 c63d 3aa1 11bd 10e3 193e
00000330: f4e2 253e 5f0c 043d 63d0 6f3d 8510 e1bc
00000340: 93b1 f2bd 0e3b 133d 717e 123d bb28 4abe
00000350: 30bc 2f3b f391 3c3d b6df e73b 8fce 15bd
00000360: 2648 7fbe 94e6 f4bd 59d5 44be dfa9 c4bd
00000370: dc16 ec3d c0d3 7a3d 0442 83bd 78e7 23be
00000380: 116f da3d c2fb b7bd 2c7b 71bd 358e 3dbc
00000390: fa6b b2bd e46c 5b3d 4be8 ff3d 295d 0dbe
000003a0: e5c3 16bd 3608 18be 49a2 96bd a3ba f63d
000003b0: 8312 d33b 39f7 f6bd d7be 04be fb6d 04be
000003c0: 78d5 e5bc 17f0 cf3b ed18 bf3d dc93 70bd
000003d0: f4cb ba3c 8793 0bbe d98b cd3d b68b fcbd
000003e0: 3a92 a0bd 1501 d43d 2874 3fbb 3e85 fabd
000003f0: a10e 6cbd 0025 863d cf88 bbbc 2fd5 56be

fc1.bias f4 [128]
-0.12155263 -0.030035155 0.108888 0.12381103 -0.14627594 0.1857319 0.070440695 0.1423873
0.0001273349 -0.028720934 0.062991366 -0.05222812 -0.19557434 0.017693255 0.02901509 0.020766705
-0.16814482 -0.063850164 -0.050661698 -0.09220569 -0.0996138 0.23111908 -0.09824871 0.16992679
-0.17219858 -0.111111216 -0.12099789 -0.006192687 -0.106793895 -0.02503953 -0.1499213 -0.121628225
0.16997017 -0.10727161 0.2213552 0.0029624754 0.12322923 -0.01325438 0.1159355 0.19609562
0.22908993 -0.18427324 0.17751007 -0.021864379 0.0509051 0.19009823 -0.19329837 0.0072879856
-0.14222105 0.13985686 -0.056767777 0.021085571 -0.0065091965 0.13346116 -0.122017235 -0.030433267
-0.008797468 -0.03923847 -0.15083137 -0.03700675 -0.0931446 0.06017281 -0.041446067 0.14530206
0.17512852 -0.13666451 0.06360569 -0.12058308 0.036034465 -0.14683293 0.08451879 0.09181932
0.099344574 -0.07744079 0.23102325 -0.06180009 0.07747787 0.15361975 0.12803435 0.18136142
0.19359083 0.14280614 0.03572479 0.07802672 -0.15715069 -0.13210957 -0.013799067 -0.0041318214
0.18646468 -0.048141707 0.07241019 0.095904514 -0.099108554 0.095014475 -0.18147576 0.04619614
-0.160905 -0.09110692 0.03713745 0.02557223 -0.035854045 -0.21151324 -0.043729357 -0.10605125
0.08603643 -0.08621459 -0.10221552 0.050476816 -0.04553065 0.0964006 -0.14989667 0.03126802
-0.056908187 0.1297343 -0.03971082 0.010350929 -0.1444306 -0.14187907 -0.09114488 0.16968141
0.1743328 -0.087175585 0.11625329 0.028477313 0.0917111 -0.14854303 -0.040928088 -0.048064675
00000000: 96f0 f8bd 490c f6bc ac00 df3d a390 fd3d
00000010: 5cc9 15be 8130 3e3e 3643 903d facd 113e
00000020: 3485 0539 2a48 ebbc 9e01 813d 27ed 55bd
00000030: a444 48be 72f1 903c 0eb1 ed3c f01e aa3c
00000040: 282e 2cbe e0c3 82bd a482 4fbd 56d6 bcbd
00000050: 5202 ccbd 7baa 6c3e 9f36 c9bd 4a01 2e3e
00000060: d354 30be 478e e3bd becd f7bd 06ec cabb
00000070: c2b6 dabd b31f cdbc f884 19be 3818 f9bd
00000080: a90c 2e3e 38b1 dbbd f0aa 623e 1726 423b
00000090: 9b5f fc3d e628 59bc 976f ed3d 4acd 483e
000000a0: 8d96 6a3e 20b2 3cbe 33c5 353e ed1c b3bc
000000b0: de81 503d 1ca9 423e 02f0 45be 0ed0 ee3b
000000c0: 65a2 11be a336 0f3e 5485 68bd a6bb ac3c
000000d0: 194b d5bb 0baa 083e 2ce4 f9bd 304f f9bc
000000e0: 4123 10bc 85b8 20bd 8a73 1abe 6494 17bd
000000f0: 99c2 bebd c477 763d 5ac3 29bd 10ca 143e
00000100: e454 333e c8f1 0bbe b343 823d 43f4 f6bd
00000110: e098 133d 5f5b 16be 3018 ad3d c50b bc3d
00000120: 2b75 cb3d 4799 9ebd 5c91 6c3e 1722 7dbd
00000130: b8ac 9e3d 7f4e 1d3e 701b 033e cfb6 393e
00000140: ad3c 463e c63b 123e 2854 123d 79cc 9f3d
00000150: 1cec 20be bb47 07be 7b15 62bc 3b64 87bb
00000160: 99f0 3e3e 3d30 45bd cb4b 943d 9669 c43d
00000170: 6df9 cabd f396 c23d c8d4 39be 2a38 3d3d
00000180: 48c4 24be 4496 babd 701d 183d da7c d13c
00000190: b1db 12bd ed96 58be 8e1d 33bd 6631 d9bd
000001a0: de33 b03d 4691 b0bd 5f56 d1bd c7c0 4e3d
000001b0: 597e 3abd ae6d c53d 837e 19be e512 003d
000001c0: 8f18 69bd 11d9 043e d0a7 22bd f196 293c
000001d0: 9de5 13be bf48 11be 2baa babd f7c0 2d3e
000001e0: 4c84 323e 1d89 b2bd 3416 ee3d 4149 e93c
000001f0: 07d3 bb3d aa1b 18be 36a4 27bd 77df 44bd

fc2.weight f4 [64, 128]
0.03840815 -0.08228343 -0.01389399 0.10358156 -0.1099847 0.08820104 -0.1083608 0.0030870917
-0.018300155 -0.056447636 0.04638994 0.11919082 0.0025581215 -0.03959142 0.0062133074 0.025328828
0.023571104 -0.07859957 0.055989835 0.009501323 -0.028558241 0.060781382 0.022554934 0.101773724
-0.0013814722 0.0151775405 0.09572664 -0.022075845 0.056563508 0.050023414 -0.11843256 0.018781967
0.16568741 0.082886025 0.042703807 -0.07781635 0.071669236 0.10212966 0.14736709 -0.017083973
0.0074868808 0.0368312 0.1271079 0.20329553 -0.09016798 0.14365198 -0.06021944 -0.030374508
0.03409096 0.08441775 0.013815498 0.16394626 -0.085640036 0.048012298 0.082324214 0.019706745
0.09873835 0.098959774 0.13557942 -0.0074154553 -0.13980958 0.04496113 0.025488062 0.090213336
-0.06319994 0.024808804 -0.03623315 -0.038867995 -0.007176865 -0.053015627 -0.0850153 0.11121066
0.01603968 0.053329926 0.028488064 0.06666649 0.035461448 0.11903746 0.0059549524 0.2124144
0.17045045 0.14533707 0.15431637 0.13759173 0.08977652 0.053484578 -0.051862996 0.048591834
-0.039043978 -0.07706582 -0.023117647 -0.086018756 0.013320719 0.03939049 0.043369457 0.039588556
-0.05567369 -0.09401097 0.063231185 0.11736198 -0.04970365 -0.053477712 0.110193595 0.06182187
0.08267011 0.10233369 -0.13466936 -0.0638999 -0.0005680321 0.09960504 -0.028292313 -0.11035566
-0.0059023285 0.009517147 0.10289897 -0.0361591 0.009355703 -0.0569882 0.017738972 0.04976336
0.13921377 0.037759777 0.07397643 0.035395216 -0.0061397655 0.08647317 -0.08719136 0.055141836
0.081819974 -0.069981866 -0.1651115 -0.058582388 0.09192864 -0.0913988 0.0009647609 -0.020232065
0.09796381 -0.12001033 0.014509411 -0.17862704 0.038848374 0.10495084 -0.005109233 -0.023774754
0.13202988 -0.020791698 -0.08350509 0.061284687 -0.122225545 -0.17997539 0.0026510942 -0.015033371
0.05001418 -0.023989074 0.03902878 0.06272752 -0.10216971 -0.10028598 0.111446455 0.025181713
0.06274976 -0.005316731 -0.105279855 -0.01898604 0.06829803 -0.12789279 -0.015534818 -0.14897946
-0.122621894 0.08789049 -0.07603295 -0.046757318 -0.01387643 -0.07356006 0.10875866 0.08048404
0.07764465 0.04592635 0.0125178285 0.033306155 -0.015045932 -0.082282566 0.07249048 -0.0500011
-0.09997154 -0.13247348 -0.007946006 -0.06724733 -0.015584334 0.06733902 -0.0067046382 -0.06263913
0.055349484 -0.061919395 0.03682783 -0.048764374 -0.0948874 0.10729934 -0.0054694526 -0.07538796
0.10537968 -0.038146354 -0.0035431134 -0.049188796 0.019822206 0.058006767 -0.02373603 0.012924441
-0.014548219 -0.15156738 -0.1572298 -0.07158951 -0.049642276 0.0046742186 -0.004010742 -0.035821423
-0.0066918344 0.026995357 -0.04898171 0.046220336 -0.07635409 -0.12244023 0.08335134 -0.048314758
0.061277036 -0.057172075 -0.053221498 -0.049025346 0.019723943 0.027591698 -0.03208103 -0.030362058
-0.09926884 -0.016037362 0.04197853 -0.015068816 0.07346254 -0.028474038 -0.08062243 0.018088516
-0.12287377 -0.1308144 -0.12634146 -0.02615039 -0.063369446 -0.08538056 0.10122647 -0.13534409
-0.083320506 0.00078375003 -0.025010806 -0.015339492 -0.052008003 0.081139185 0.09068368 -0.07198596
00000000: dd51 1d3d 3784 a8bd 9ea3 63bc 9222 d43d
00000010: a93f e1bd bfa2 b43d 44ec ddbd ce50 4a3b
00000020: 35ea 95bc a335 67bd 6103 3e3d 511a f43d
00000030: 28a6 273b 9d2a 22bd 0099 cb3b 677e cf3c
00000040: 3018 c13c d0f8 a0bd 9955 653d 70ab 1b3c
00000050: f9f2 e9bc e6f5 783d 20c5 b83c be6e d03d
00000060: 8412 b5ba 38ab 783c 540c c43d 67d8 b4bc
00000070: 23af 673d 5ae5 4c3d c58c f2bd a4dc 993c
00000080: f6a9 293e 26c0 a93d 30ea 2e3d 2e5e 9fbd
00000090: 52c7 923d 5b29 d13d 66e7 163e b0f3 8bbc
000000a0: 8254 f53b 50dc 163d 9328 023e b42c 503e
000000b0: fda9 b8bd 8119 133e a9a8 76bd f6d3 f8bc
000000c0: f6a2 0b3d 37e3 ac3d 665a 623c 87e1 273e
000000d0: 0b64 afbd 8ba8 443d 9999 a83d 0a70 a13c
000000e0: 5537 ca3d 6cab ca3d 55d5 0a3e 59fd f2bb
000000f0: 3e2a 0fbe 2929 383d 57cc d03c c5c1 b83d
00000100: f86e 81bd d53b cb3c 3669 14bd 0c34 1fbd
00000110: e82b ebbb ea26 59bd 801c aebd 6ac2 e33d
00000120: a665 833c 7b70 5a3d cd5f e93c 7188 883d
00000130: 0640 113d e9c9 f33d c321 c33b 2983 593e
00000140: 908a 2e3e 3ed3 143e 1c05 1e3e d9e4 0c3e
00000150: c1dc b73d a512 5b3d 4b6e 54bd 3b08 473d
00000160: 94ec 1fbd afd4 9dbd 3861 bdbc 9a2a b0bd
00000170: 253f 5a3c ec57 213d 2ca4 313d 9c27 223d
00000180: 180a 64bd d388 c0bd 5a7f 813d 7a5b f03d
00000190: 0e96 4bbd 720b 5bbd 2ead e13d ee38 7d3d
000001a0: f24e a93d 5394 d13d c4e6 09be f3dd 82bd
000001b0: fde7 14ba bafd cb3d 48c5 e7bc 2602 e2bd
000001c0: 5268 c1bb cfed 1b3c b2bc d23d 901b 14bd
000001d0: aa48 193c 756c 69bd 5251 913c aad4 4b3d
000001e0: 0e8e 0e3e ffa9 1a3d f480 973d 93fa 103d
000001f0: 1630 c9bb d818 b13d 6291 b2bd 68dc 613d
00000200: 3b91 a73d a752 8fbd fd12 29be 16f4 6fbd
00000210: 1545 bc3d 4b2f bbbd 02e8 7c3a b7bd a5bc
00000220: 40a1 c83d fac7 f5bd e1b8 6d3c 02ea 36be
00000230: 791f 1f3d 77f0 d63d 5a6b a7bb 46c3 c2bc
00000240: d732 073e 5a53 aabc b704 abbd a705 7b3d
00000250: 6351 fabd 784b 38be fbbd 2d3b 874e 76bc
00000260: abdb 4c3d bc84 c4bc a4dc 1f3d 4977 803d
00000270: 5a3e d1bd bc62 cdbd 0a3e e43d e149 ce3c
00000280: f282 803d f937 aebb f79c d7bd 9d88 9bbc
00000290: d6df 8b3d 54f6 02be c085 7ebc 128e 18be
000002a0: 3021 fbbd eeff b33d 2ab7 9bbd 9a84 3fbd
000002b0: f759 63bc a8a6 96bd dcbc de3d d1d4 a43d
000002c0: 2904 9f3d 451d 3c3d 9417 4d3c 096c 083d
000002d0: 3683 76bc c383 a8bd e475 943d f4cd 4cbd
000002e0: e1bd ccbd 21a7 07be f72f 02bc f8b8 89bd
000002f0: 6f55 7fbc 0ae9 893d 95b2 dbbb f248 80bd
00000300: 24b6 623d 319f 7dbd c7d8 163d 27bd 47bd
00000310: 5354 c2bd c2bf db3d 1839 b3bb 0165 9abd
00000320: 4dd1 d73d 5a3f 1cbd 9433 68bb 317a 49bd
00000330: 2e62 a23c 8198 6d3d 1072 c2bc 09c1 533c
00000340: a75b 6ebc 7b34 1bbe d900 21be 859d 92bd
00000350: b355 4bbd 302a 993b 8b6c 83bb 7cb9 12bd
00000360: 2d47 dbbb 5e25 dd3c 0ca1 48bd 8951 3d3d
00000370: 885f 9cbd f1c1 fabd 1bb4 aa3d b2e5 45bd
00000380: a1fd 7a3d 442d 6abd c9fe 59bd cdce 48bd
00000390: 1b94 a13c fc07 e23c 6667 03bd dab9 f8bc
000003a0: 764d cbbd c960 83bc aef1 2b3d 32e3 76bc
000003b0: 8773 963d 6342 e9bc 5f1d a5bd 5e2e 943c
000003c0: 3ea5 fbbd 36f4 05be a85f 01be 5839 d6bc
000003d0: d7c7 81bd 01dc aebd d34f cf3d a497 0abe
000003e0: f1a3 aabd 9374 4d3a 76e3 ccbc 7e52 7bbc
000003f0: 5806 55bd 4d2c a63d 5db8 b93d 606d 93bd

fc2.bias f4 [64]
0.06674469 -0.08039759 0.025334472 0.016813578 -0.029060505 0.010367064 0.043653846 -0.054405894
-0.07417537 -0.08211505 -0.044145215 -0.054745875 0.06462876 0.034661934 0.03476646 0.0638881
0.060279306 -0.033466987 0.12093594 -0.0065827295 -0.09221278 -0.043869384 0.074617706 -0.019058507
0.15274154 0.13569944 0.1344593 -0.09968734 0.038966276 -0.016813645 0.117142536 -0.06522124
0.095954694 0.080819674 -0.0023528128 0.07367102 0.09749758 -0.01664949 -0.035975795 -0.088719934
-0.011384984 0.013698033 0.056967393 0.07578133 -0.00028001063 0.0017499678 0.046915743 0.08620305
-0.011730849 -0.118190475 -0.13199538 0.0756317 0.09465055 -0.11758992 -0.043751962 -0.13212317
0.043010093 0.008555467 -0.11694827 0.097100906 -0.078003496 0.12240048 -0.014488926 -0.024911782
00000000: 71b1 883d 7ea7 a4bd 3d8a cf3c a1bc 893c
00000010: 4c10 eebc 9eda 293c 60ce 323d b7d8 5ebd
00000020: 42e9 97bd ef2b a8bd 9dd1 34bd 363d 60bd
00000030: 155c 843d acf9 0d3d 4767 0e3d c4d7 823d
00000040: 6fe7 763d ae14 09bd 43ad f73d f0b3 d7bb
00000050: 0eda bcbd 62b0 33bd 2bd1 983d 9620 9cbc
00000060: 4768 1c3e cbf4 0a3e b3af 093e e028 ccbd
00000070: 1a9b 1f3d c5bc 89bc 6de8 ef3d b792 85bd
00000080: e583 c43d c984 a53d a631 1abb d5e0 963d
00000090: d0ac c73d 8364 88bc 5b5b 13bd ccb2 b5bd
000000a0: 1588 3abc b76d 603c a456 693d 3e33 9b3d
000000b0: 64ce 92b9 2d5f e53a b92a 403d 3a8b b03d
000000c0: bf32 40bc d90d f2bd cc29 07be cbe4 9a3d
000000d0: 26d8 c13d fcd2 f0bd 4235 33bd 4c4b 07be
000000e0: 5a2b 303d 3b2c 0c3c 9382 efbd d7dc c63d
000000f0: 4cc0 9fbd 1aad fa3d f662 6dbc cb13 ccbc

fc3.weight f4 [32, 64]
-0.0283943 -0.041907426 -0.13252246 -0.051392894 -0.05751771 -0.09724796 0.048116054 0.13981721
-0.026842762 0.09752122 0.0012231087 -0.081286326 -0.10265156 -0.14249249 -0.11085158 -0.103503704
0.044924617 -0.051939175 -0.1750702 -0.10447025 0.03961336 0.11685735 0.027138833 -0.1358159
-0.13468939 0.004126956 -0.13129725 0.08797772 -0.068474464 -0.17843956 0.07270958 -0.06043118
-0.11565981 0.081537955 0.004653488 0.0718809 0.04966578 -0.11421645 0.06547082 0.120529965
0.06640366 -0.04860547 0.052214727 0.03157987 0.08211698 -0.028326835 -0.008087793 -0.11662295
-0.077730194 0.04252207 0.08995559 0.06469024 -0.023696436 0.13602833 -0.07144965 0.07368003
-0.0070399507 0.05287766 0.10297468 0.04054893 0.02289503 0.09652551 0.018501405 0.008080309
0.13243715 -0.08851534 0.022296017 -0.0009832054 0.034652688 0.11360608 0.095803775 0.015217096
-0.058945622 -0.12661617 -0.15656504 -0.013559496 0.02135036 0.10569162 -0.025314536 0.1582684
0.06700585 -0.03826499 0.09084102 0.102822974 -0.14827804 0.06640028 0.04363865 -0.17281073
-0.009917474 0.0028563587 0.06026811 0.08423333 -0.026917648 0.10137502 0.10363529 -0.091507144
0.11574235 0.08414879 -0.13336213 -0.10739863 0.11586316 0.08658743 -0.0022877106 -0.09580523
-0.089955226 0.10724725 0.0752965 0.1767911 0.053148318 0.0852044 0.08045092 0.10050243
-0.1634376 0.007426045 -0.022830747 0.03242344 0.12587966 0.022791985 0.08899593 0.03812127
0.09436466 -0.13224229 0.05396331 -0.06484648 -0.05572376 0.10585627 -0.09149024 0.022857126
-0.025799723 0.09515878 -0.15132667 -0.059064426 0.04203556 -0.08621687 0.034291387 -0.079641074
0.1662157 -0.13183318 -0.012372503 0.025148956 -0.010057944 0.0022238896 -0.03986791 -0.08852503
0.07382962 0.01149469 -0.11611274 0.0022825527 -0.10566015 0.0462818 -0.016155666 0.047921747
-0.062355828 0.05567972 -0.115104094 0.004037684 0.04468298 0.0075825886 0.0024007019 -0.0062160026
-0.026201162 -0.09039397 -0.05571555 0.11642181 -0.1535596 -0.023678176 0.022538105 0.1171493
0.028647648 0.051141474 0.024570165 -0.11960927 -0.10608675 0.0488033 -0.085129604 0.024105364
0.085373916 0.050340313 -0.0833184 -0.022008283 -0.05587404 0.034301948 0.015844854 0.024587112
-0.04002345 -0.06013711 0.019721154 -0.11953322 -0.12904084 -0.058949474 0.07554643 0.015563199
0.04943955 0.1288505 -0.065551125 0.028541833 0.048342653 0.0659615 0.007390906 -0.018000007
0.07859886 0.092428036 0.046609364 -0.12624699 -0.06701248 -0.07655918 -0.011085842 -0.16238858
-0.093184374 -0.08148677 -0.008228642 0.096497595 0.013994261 0.056690384 -0.04550596 -0.15349713
0.013868679 0.064498164 0.000389455 -0.082524255 0.005878901 -0.017064108 0.057415813 0.04154756
0.10019969 0.037182514 0.09968884 -0.036852684 0.047691215 0.051943604 -0.063240185 -0.08867269
0.08135349 -0.06442276 0.03662664 0.016534993 0.06154863 -0.026705911 -0.043171853 0.011580945
0.15058847 -0.08152255 0.07494671 0.05052642 0.0048033735 -0.0346786 0.10597652 0.07489164
-0.09698819 0.06121872 0.037314963 -0.021613223 0.0122698415 0.0009676658 -0.1298519 -0.15889265
00000000: 2a9b e8bc 1fa7 2bbd f8b3 07be 5b81 52bd
00000010: b197 6bbd f029 c7bd 5715 453d 3e2c 0f3e
00000020: 5ae5 dbbc 35b9 c73d b850 a03a 7279 a6bd
00000030: fb3a d2bd 8de9 11be 2706 e3bd c0f9 d3bd
00000040: e002 383d 2cbe 54bd 9a45 33be 80f4 d5bd
00000050: 9e41 223d e852 ef3d 4252 de3c 5313 0bbe
00000060: 04ec 09be 6b3b 873b c972 06be aa2d b43d
00000070: 573c 8cbd dcb8 36be c3e8 943d af86 77bd
00000080: 0ddf ecbd 5ffd a63d 497c 983b 4b36 933d
00000090: 586e 4b3d 50ea e9bd 9115 863d 6ad8 f63d
000000a0: a4fe 873d 8816 47bd 1cdf 553d e559 013d
000000b0: f22c a83d ae0d e8bc aa82 04bc 03d8 eebd
000000c0: 0231 9fbd 9f2b 2e3d a33a b83d 517c 843d
000000d0: 071f c2bc 034b 0b3e 3254 92bd 8ee5 963d
000000e0: 63af e6bb 3f96 583d 64e4 d23d a316 263d
000000f0: 5c8e bb3c 2baf c53d 4290 973c 4663 043c
00000100: 9b9d 073e 8847 b5bd 23a6 b63c e6de 80ba
00000110: faef 0d3d 4eaa e83d c534 c43d 2051 793c
00000120: f770 71bd aba7 01be 9652 20be a628 5ebc
00000130: f3e6 ae3c d974 d83d 6e60 cfbc 1d11 223e
00000140: 5d3a 893d c0bb 1cbd db0a ba3d da94 d23d
00000150: 33d6 17be dffc 873d 71be 323d 4cf5 30be
00000160: e77c 22bc bf31 3b3b b2db 763d 8682 ac3d
00000170: 6682 dcbc b59d cf3d bd3e d43d 1968 bbbd
00000180: 530a ed3d 3356 ac3d 1590 08be d0f3 dbbd
00000190: aa49 ed3d c054 b13d 6aed 15bb 8835 c4bd
000001a0: 723a b8bd 72a4 db3d 0d35 9a3d ba08 353e
000001b0: 0db2 593d a57f ae3d 74c3 a43d 38d4 cd3d
000001c0: 305c 27be 2e56 f33b 8c07 bbbc 71ce 043d
000001d0: 99e6 003e 42b6 ba3c 8043 b63d 0c25 1c3d
000001e0: 4242 c13d 866a 07be a208 5d3d 3bce 84bd
000001f0: 993e 64bd 2ccb d83d 3c5f bbbd de3e bb3c
00000200: f159 d3bc 9be2 c23d 61f5 1abe 8aed 71bd
00000210: 7b2d 2c3d 7892 b0bd 2075 0c3d dc1a a3bd
00000220: 7334 2a3e 47ff 06be 0ab6 4abc 2f05 ce3c
00000230: 13ca 24bc adbe 113b 894c 23bd 9c4c b5bd
00000240: fc33 973d 3954 3c3c 84cc edbd e196 153b
00000250: 5964 d8bd fc91 3d3d e358 84bc 9849 443d
00000260: d368 7fbd 6b10 643d b2bb ebbd 8c4e 843b
00000270: 8005 373d 5d77 f83b 1855 1d3b 9caf cbbb
00000280: d2a3 d6bc 7920 b9bd fd35 64bd 8f6e ee3d
00000290: ba3e 1dbe bcf8 c1bc d5a1 b83c f9eb ef3d
000002a0: 79ae ea3c b979 513d 5f47 c93c b4f5 f4bd
000002b0: 0344 d9bd f8e5 473d 6e58 aebd 9d78 c53c
000002c0: 85d8 ae3d a531 4e3d d6a2 aabd b74a b4bc
000002d0: 2ddc 64bd 3380 0c3d 11cd 813c e96a c93c
000002e0: a1ef 23bd 5552 76bd 428e a13c d5cd f4bd
000002f0: 4823 04be 0175 71bd 16b8 9a3d cafc 7e3c
00000300: 2081 4a3d 63f1 033e ab3f 86bd 90d0 e93c
00000310: f202 463d d316 873d 6a2f f23b c074 93bc
00000320: 70f8 a03d e94a bd3d 76e9 3e3d e446 01be
00000330: d73d 89bd 0fcb 9cbd 64a1 35bc 3149 26be
00000340: 73d7 bebd 89e2 a6bd 6dd1 06bc 88a0 c53d
00000350: 2f48 653c 2d34 683d 7564 3abd 5a2e 1dbe
00000360: 7539 633c 9d17 843d c42f cc39 7a02 a9bd
00000370: cca3 c03b 07ca 8bbc d82c 6b3d c62d 2a3d
00000380: 7f35 cd3d b14c 183d aa29 cc3d d7f2 16bd
00000390: dd57 433d d1c2 543d 1284 81bd 079a b5bd
000003a0: a99c a63d 14f0 83bd d105 163d 6574 873c
000003b0: 6b1a 7c3d 5bc6 dabc f8d4 30bd 01be 3d3c
000003c0: dd33 1a3e 4bf5 a6bd a97d 993d cbf4 4e3d
000003d0: 9e65 9d3b 260b 0ebd 380a d93d ca60 993d
000003e0: bfa1 c6bd 7bc0 7a3d 93d7 183d 370e b1bc
000003f0: 7207 493c f4aa 7d3a e5f7 04be c1b4 22be

fc3.bias f4 [32]
-0.054741524 0.13049331 0.0035816145 -0.06510894 0.1541415 -0.14824307 -0.018694852 -0.041173503
0.11168781 0.17335702 -0.036416054 -0.14964324 -0.036224995 0.1405032 0.0031531528 0.15876175
0.090383425 0.119999245 0.004936212 -0.14191993 0.2008103 0.18706313 -0.054981776 0.013251188
-0.01579414 -0.03779061 0.1237136 0.1388048 -0.042162824 0.03648174 0.046023186 -0.06819215
00000000: a638 60bd 0aa0 053e 85b9 6a3b d657 85bd
00000010: 45d7 1d3e 08cd 17be f225 99bc 8ca5 28bd
00000020: 94bc e43d 8184 313e 0029 15bd 143c 19be
00000030: a960 14bd 12e0 0f3e 20a5 4e3b 7192 223e
00000040: f21a b93d 2ac2 f53d f3bf a13b 7553 11be
00000050: 37a1 4d3e 7a8d 3f3e 9234 61bd 831b 593c
00000060: b662 81bc 54ca 1abd 8e5d fd3d d822 0e3e
00000070: edb2 2cbd e16d 153d cf82 3c3d 53a8 8bbd

fc4.weight f4 [1, 32]
0.09668579 -0.08035217 0.028219812 0.16179955 -0.06902957 0.01831554 0.07271458 0.14185
-0.14234528 -0.13347454 0.114980824 0.103549525 -0.002691698 -0.06521839 0.03929607 -0.08394594
0.14042805 -0.111304976 0.13551341 0.07568336 -0.086220965 -0.050766803 0.17426969 -0.109057344
0.054966297 0.15603787 -0.025548102 -0.085910134 0.015544771 -0.077333756 0.17643037 -0.11852184
00000000: 3303 c63d ae8f a4bd 3c2d e73c c8ae 253e
00000010: 605f 8dbd 790a 963c 62eb 943d 2041 113e
00000020: f6c2 11be 8dad 08be 117b eb3d c611 d43d
00000030: 3367 30bb 3891 85bd eaf4 203d d9eb abbd
00000040: 5fcc 0f3e ddf3 e3bd 07c4 0a3e e1ff 9a3d
00000050: 9e94 b0bd daf0 4fbd c173 323e 7559 dfbd
00000060: 5724 613d 64c8 1f3e 414a d1bc a7f1 afbd
00000070: 7faf 7e3c 2961 9ebd 2aaa 343e 94bb f2bd
